module attributes {llvm.data_layout = "e-m:o-p270:32:32-p271:32:32-p272:64:64-i64:64-f80:128-n8:16:32:64-S128", llvm.target_triple = "x86_64-apple-darwin21.4.0"} {
  func.func @main_graph(%arg0: tensor<1x1x28x28xf32>) -> tensor<1x10xf32> attributes {input_names = ["input.1"], output_names = ["28"]} {
    %0 = "onnx.Constant"() {value = dense_resource<__elided__> : tensor<6x1x5x5xf32>} : () -> tensor<6x1x5x5xf32>
    %1 = "onnx.Constant"() {value = dense<[0.00184033928, -0.130562738, -0.0220767837, 0.0234331954, 0.0892069861, 0.104775451]> : tensor<6xf32>} : () -> tensor<6xf32>
    %2 = "onnx.Constant"() {value = dense_resource<__elided__> : tensor<16x6x5x5xf32>} : () -> tensor<16x6x5x5xf32>
    %3 = "onnx.Constant"() {value = dense<[… > : tensor<16xf32>} : () -> tensor<16xf32>
    %4 = "onnx.Constant"() {value = dense_resource<__elided__> : tensor<120x256xf32>} : () -> tensor<120x256xf32>
    %5 = "onnx.Constant"() {value = dense_resource<__elided__> : tensor<120xf32>} : () -> tensor<120xf32>
    %6 = "onnx.Constant"() {value = dense_resource<__elided__> : tensor<84x120xf32>} : () -> tensor<84x120xf32>
    %7 = "onnx.Constant"() {value = dense<[… > : tensor<84xf32>} : () -> tensor<84xf32>
    %8 = "onnx.Constant"() {value = dense_resource<__elided__> : tensor<10x84xf32>} : () -> tensor<10x84xf32>
    %9 = "onnx.Constant"() {value = dense<[0.124590561, 0.190125614, 0.0186673906, 0.0658980832, 0.0891563147, 0.104962796, -0.0398643799, -2.5751628E-4, -0.0296229422, 0.100819178]> : tensor<10xf32>} : () -> tensor<10xf32>
    %10 = "onnx.Constant"() {value = dense<[1, -1]> : tensor<2xi64>} : () -> tensor<2xi64>
    %11 = "onnx.Conv"(%arg0, %0, %1) {dilations = [1, 1], group = 1 : si64, kernel_shape = [5, 5], onnx_node_name = "Conv_0", pads = [0, 0, 0, 0], strides = [1, 1]} : (tensor<1x1x28x28xf32>, tensor<6x1x5x5xf32>, tensor<6xf32>) -> tensor<1x6x24x24xf32>
    %12 = "onnx.Relu"(%11) {onnx_node_name = "Relu_1"} : (tensor<1x6x24x24xf32>) -> tensor<1x6x24x24xf32>
    %13 = "onnx.MaxPoolSingleOut"(%12) {ceil_mode = 0 : si64, kernel_shape = [2, 2], onnx_node_name = "MaxPool_2", pads = [0, 0, 0, 0], strides = [2, 2]} : (tensor<1x6x24x24xf32>) -> tensor<1x6x12x12xf32>
    %14 = "onnx.Conv"(%13, %2, %3) {dilations = [1, 1], group = 1 : si64, kernel_shape = [5, 5], onnx_node_name = "Conv_3", pads = [0, 0, 0, 0], strides = [1, 1]} : (tensor<1x6x12x12xf32>, tensor<16x6x5x5xf32>, tensor<16xf32>) -> tensor<1x16x8x8xf32>
    %15 = "onnx.Relu"(%14) {onnx_node_name = "Relu_4"} : (tensor<1x16x8x8xf32>) -> tensor<1x16x8x8xf32>
    %16 = "onnx.MaxPoolSingleOut"(%15) {ceil_mode = 0 : si64, kernel_shape = [2, 2], onnx_node_name = "MaxPool_5", pads = [0, 0, 0, 0], strides = [2, 2]} : (tensor<1x16x8x8xf32>) -> tensor<1x16x4x4xf32>
    %17 = "onnx.Reshape"(%16, %10) {onnx_node_name = "Reshape_6"} : (tensor<1x16x4x4xf32>, tensor<2xi64>) -> tensor<1x256xf32>
    %18 = "onnx.Gemm"(%17, %4, %5) {alpha = 1.000000e+00 : f32, beta = 1.000000e+00 : f32, onnx_node_name = "Gemm_7", transB = 1 : si64} : (tensor<1x256xf32>, tensor<120x256xf32>, tensor<120xf32>) -> tensor<1x120xf32>
    %19 = "onnx.Relu"(%18) {onnx_node_name = "Relu_8"} : (tensor<1x120xf32>) -> tensor<1x120xf32>
    %20 = "onnx.Gemm"(%19, %6, %7) {alpha = 1.000000e+00 : f32, beta = 1.000000e+00 : f32, onnx_node_name = "Gemm_9", transB = 1 : si64} : (tensor<1x120xf32>, tensor<84x120xf32>, tensor<84xf32>) -> tensor<1x84xf32>
    %21 = "onnx.Relu"(%20) {onnx_node_name = "Relu_10"} : (tensor<1x84xf32>) -> tensor<1x84xf32>
    %22 = "onnx.Gemm"(%21, %8, %9) {alpha = 1.000000e+00 : f32, beta = 1.000000e+00 : f32, onnx_node_name = "Gemm_11", transB = 1 : si64} : (tensor<1x84xf32>, tensor<10x84xf32>, tensor<10xf32>) -> tensor<1x10xf32>
    %23 = "onnx.Relu"(%22) {onnx_node_name = "Relu_12"} : (tensor<1x10xf32>) -> tensor<1x10xf32>
    return %23 : tensor<1x10xf32>
  }
  "onnx.EntryPoint"() {func = @main_graph} : () -> ()
}
