module attributes {llvm.data_layout = "e-m:o-p270:32:32-p271:32:32-p272:64:64-i64:64-f80:128-n8:16:32:64-S128", llvm.target_triple = "x86_64-apple-darwin21.4.0"} {
  func.func @main_graph(%arg0: tensor<1x3x224x224xf32>) -> tensor<1x1000xf32> attributes {input_names = ["data"], output_names = ["resnetv17_dense0_fwd"]} {
    %0 = "onnx.Constant"() {value = dense_resource<__elided__> : tensor<64x3x7x7xf32>} : () -> tensor<64x3x7x7xf32>
    %1 = "onnx.Constant"() {value = dense<[… > : tensor<64xf32>} : () -> tensor<64xf32>
    %2 = "onnx.Constant"() {value = dense<[… > : tensor<64xf32>} : () -> tensor<64xf32>
    %3 = "onnx.Constant"() {value = dense<[… > : tensor<64xf32>} : () -> tensor<64xf32>
    %4 = "onnx.Constant"() {value = dense<[… > : tensor<64xf32>} : () -> tensor<64xf32>
    %5 = "onnx.Constant"() {value = dense_resource<__elided__> : tensor<64x64x1x1xf32>} : () -> tensor<64x64x1x1xf32>
    %6 = "onnx.Constant"() {value = dense<[… > : tensor<64xf32>} : () -> tensor<64xf32>
    %7 = "onnx.Constant"() {value = dense<[… > : tensor<64xf32>} : () -> tensor<64xf32>
    %8 = "onnx.Constant"() {value = dense<[… > : tensor<64xf32>} : () -> tensor<64xf32>
    %9 = "onnx.Constant"() {value = dense<[… > : tensor<64xf32>} : () -> tensor<64xf32>
    %10 = "onnx.Constant"() {value = dense<[… > : tensor<64xf32>} : () -> tensor<64xf32>
    %11 = "onnx.Constant"() {value = dense_resource<__elided__> : tensor<64x64x3x3xf32>} : () -> tensor<64x64x3x3xf32>
    %12 = "onnx.Constant"() {value = dense<[… > : tensor<64xf32>} : () -> tensor<64xf32>
    %13 = "onnx.Constant"() {value = dense<[… > : tensor<64xf32>} : () -> tensor<64xf32>
    %14 = "onnx.Constant"() {value = dense<[… > : tensor<64xf32>} : () -> tensor<64xf32>
    %15 = "onnx.Constant"() {value = dense<[… > : tensor<64xf32>} : () -> tensor<64xf32>
    %16 = "onnx.Constant"() {value = dense_resource<__elided__> : tensor<256x64x1x1xf32>} : () -> tensor<256x64x1x1xf32>
    %17 = "onnx.Constant"() {value = dense_resource<__elided__> : tensor<256xf32>} : () -> tensor<256xf32>
    %18 = "onnx.Constant"() {value = dense_resource<__elided__> : tensor<256xf32>} : () -> tensor<256xf32>
    %19 = "onnx.Constant"() {value = dense_resource<__elided__> : tensor<256xf32>} : () -> tensor<256xf32>
    %20 = "onnx.Constant"() {value = dense_resource<__elided__> : tensor<256xf32>} : () -> tensor<256xf32>
    %21 = "onnx.Constant"() {value = dense_resource<__elided__> : tensor<256xf32>} : () -> tensor<256xf32>
    %22 = "onnx.Constant"() {value = dense_resource<__elided__> : tensor<256x64x1x1xf32>} : () -> tensor<256x64x1x1xf32>
    %23 = "onnx.Constant"() {value = dense_resource<__elided__> : tensor<256xf32>} : () -> tensor<256xf32>
    %24 = "onnx.Constant"() {value = dense_resource<__elided__> : tensor<256xf32>} : () -> tensor<256xf32>
    %25 = "onnx.Constant"() {value = dense_resource<__elided__> : tensor<256xf32>} : () -> tensor<256xf32>
    %26 = "onnx.Constant"() {value = dense_resource<__elided__> : tensor<256xf32>} : () -> tensor<256xf32>
    %27 = "onnx.Constant"() {value = dense_resource<__elided__> : tensor<64x256x1x1xf32>} : () -> tensor<64x256x1x1xf32>
    %28 = "onnx.Constant"() {value = dense<[… > : tensor<64xf32>} : () -> tensor<64xf32>
    %29 = "onnx.Constant"() {value = dense<[… > : tensor<64xf32>} : () -> tensor<64xf32>
    %30 = "onnx.Constant"() {value = dense<[… > : tensor<64xf32>} : () -> tensor<64xf32>
    %31 = "onnx.Constant"() {value = dense<[… > : tensor<64xf32>} : () -> tensor<64xf32>
    %32 = "onnx.Constant"() {value = dense<[… > : tensor<64xf32>} : () -> tensor<64xf32>
    %33 = "onnx.Constant"() {value = dense_resource<__elided__> : tensor<64x64x3x3xf32>} : () -> tensor<64x64x3x3xf32>
    %34 = "onnx.Constant"() {value = dense<[… > : tensor<64xf32>} : () -> tensor<64xf32>
    %35 = "onnx.Constant"() {value = dense<[… > : tensor<64xf32>} : () -> tensor<64xf32>
    %36 = "onnx.Constant"() {value = dense<[… > : tensor<64xf32>} : () -> tensor<64xf32>
    %37 = "onnx.Constant"() {value = dense<[… > : tensor<64xf32>} : () -> tensor<64xf32>
    %38 = "onnx.Constant"() {value = dense_resource<__elided__> : tensor<256x64x1x1xf32>} : () -> tensor<256x64x1x1xf32>
    %39 = "onnx.Constant"() {value = dense_resource<__elided__> : tensor<256xf32>} : () -> tensor<256xf32>
    %40 = "onnx.Constant"() {value = dense_resource<__elided__> : tensor<256xf32>} : () -> tensor<256xf32>
    %41 = "onnx.Constant"() {value = dense_resource<__elided__> : tensor<256xf32>} : () -> tensor<256xf32>
    %42 = "onnx.Constant"() {value = dense_resource<__elided__> : tensor<256xf32>} : () -> tensor<256xf32>
    %43 = "onnx.Constant"() {value = dense_resource<__elided__> : tensor<256xf32>} : () -> tensor<256xf32>
    %44 = "onnx.Constant"() {value = dense_resource<__elided__> : tensor<64x256x1x1xf32>} : () -> tensor<64x256x1x1xf32>
    %45 = "onnx.Constant"() {value = dense<[… > : tensor<64xf32>} : () -> tensor<64xf32>
    %46 = "onnx.Constant"() {value = dense<[… > : tensor<64xf32>} : () -> tensor<64xf32>
    %47 = "onnx.Constant"() {value = dense<[… > : tensor<64xf32>} : () -> tensor<64xf32>
    %48 = "onnx.Constant"() {value = dense<[… > : tensor<64xf32>} : () -> tensor<64xf32>
    %49 = "onnx.Constant"() {value = dense<[… > : tensor<64xf32>} : () -> tensor<64xf32>
    %50 = "onnx.Constant"() {value = dense_resource<__elided__> : tensor<64x64x3x3xf32>} : () -> tensor<64x64x3x3xf32>
    %51 = "onnx.Constant"() {value = dense<[… > : tensor<64xf32>} : () -> tensor<64xf32>
    %52 = "onnx.Constant"() {value = dense<[… > : tensor<64xf32>} : () -> tensor<64xf32>
    %53 = "onnx.Constant"() {value = dense<[… > : tensor<64xf32>} : () -> tensor<64xf32>
    %54 = "onnx.Constant"() {value = dense<[… > : tensor<64xf32>} : () -> tensor<64xf32>
    %55 = "onnx.Constant"() {value = dense_resource<__elided__> : tensor<256x64x1x1xf32>} : () -> tensor<256x64x1x1xf32>
    %56 = "onnx.Constant"() {value = dense_resource<__elided__> : tensor<256xf32>} : () -> tensor<256xf32>
    %57 = "onnx.Constant"() {value = dense_resource<__elided__> : tensor<256xf32>} : () -> tensor<256xf32>
    %58 = "onnx.Constant"() {value = dense_resource<__elided__> : tensor<256xf32>} : () -> tensor<256xf32>
    %59 = "onnx.Constant"() {value = dense_resource<__elided__> : tensor<256xf32>} : () -> tensor<256xf32>
    %60 = "onnx.Constant"() {value = dense_resource<__elided__> : tensor<256xf32>} : () -> tensor<256xf32>
    %61 = "onnx.Constant"() {value = dense_resource<__elided__> : tensor<128x256x1x1xf32>} : () -> tensor<128x256x1x1xf32>
    %62 = "onnx.Constant"() {value = dense_resource<__elided__> : tensor<128xf32>} : () -> tensor<128xf32>
    %63 = "onnx.Constant"() {value = dense_resource<__elided__> : tensor<128xf32>} : () -> tensor<128xf32>
    %64 = "onnx.Constant"() {value = dense_resource<__elided__> : tensor<128xf32>} : () -> tensor<128xf32>
    %65 = "onnx.Constant"() {value = dense_resource<__elided__> : tensor<128xf32>} : () -> tensor<128xf32>
    %66 = "onnx.Constant"() {value = dense_resource<__elided__> : tensor<128xf32>} : () -> tensor<128xf32>
    %67 = "onnx.Constant"() {value = dense_resource<__elided__> : tensor<128x128x3x3xf32>} : () -> tensor<128x128x3x3xf32>
    %68 = "onnx.Constant"() {value = dense_resource<__elided__> : tensor<128xf32>} : () -> tensor<128xf32>
    %69 = "onnx.Constant"() {value = dense_resource<__elided__> : tensor<128xf32>} : () -> tensor<128xf32>
    %70 = "onnx.Constant"() {value = dense_resource<__elided__> : tensor<128xf32>} : () -> tensor<128xf32>
    %71 = "onnx.Constant"() {value = dense_resource<__elided__> : tensor<128xf32>} : () -> tensor<128xf32>
    %72 = "onnx.Constant"() {value = dense_resource<__elided__> : tensor<512x128x1x1xf32>} : () -> tensor<512x128x1x1xf32>
    %73 = "onnx.Constant"() {value = dense_resource<__elided__> : tensor<512xf32>} : () -> tensor<512xf32>
    %74 = "onnx.Constant"() {value = dense_resource<__elided__> : tensor<512xf32>} : () -> tensor<512xf32>
    %75 = "onnx.Constant"() {value = dense_resource<__elided__> : tensor<512xf32>} : () -> tensor<512xf32>
    %76 = "onnx.Constant"() {value = dense_resource<__elided__> : tensor<512xf32>} : () -> tensor<512xf32>
    %77 = "onnx.Constant"() {value = dense_resource<__elided__> : tensor<512xf32>} : () -> tensor<512xf32>
    %78 = "onnx.Constant"() {value = dense_resource<__elided__> : tensor<512x256x1x1xf32>} : () -> tensor<512x256x1x1xf32>
    %79 = "onnx.Constant"() {value = dense_resource<__elided__> : tensor<512xf32>} : () -> tensor<512xf32>
    %80 = "onnx.Constant"() {value = dense_resource<__elided__> : tensor<512xf32>} : () -> tensor<512xf32>
    %81 = "onnx.Constant"() {value = dense_resource<__elided__> : tensor<512xf32>} : () -> tensor<512xf32>
    %82 = "onnx.Constant"() {value = dense_resource<__elided__> : tensor<512xf32>} : () -> tensor<512xf32>
    %83 = "onnx.Constant"() {value = dense_resource<__elided__> : tensor<128x512x1x1xf32>} : () -> tensor<128x512x1x1xf32>
    %84 = "onnx.Constant"() {value = dense_resource<__elided__> : tensor<128xf32>} : () -> tensor<128xf32>
    %85 = "onnx.Constant"() {value = dense_resource<__elided__> : tensor<128xf32>} : () -> tensor<128xf32>
    %86 = "onnx.Constant"() {value = dense_resource<__elided__> : tensor<128xf32>} : () -> tensor<128xf32>
    %87 = "onnx.Constant"() {value = dense_resource<__elided__> : tensor<128xf32>} : () -> tensor<128xf32>
    %88 = "onnx.Constant"() {value = dense_resource<__elided__> : tensor<128xf32>} : () -> tensor<128xf32>
    %89 = "onnx.Constant"() {value = dense_resource<__elided__> : tensor<128x128x3x3xf32>} : () -> tensor<128x128x3x3xf32>
    %90 = "onnx.Constant"() {value = dense_resource<__elided__> : tensor<128xf32>} : () -> tensor<128xf32>
    %91 = "onnx.Constant"() {value = dense_resource<__elided__> : tensor<128xf32>} : () -> tensor<128xf32>
    %92 = "onnx.Constant"() {value = dense_resource<__elided__> : tensor<128xf32>} : () -> tensor<128xf32>
    %93 = "onnx.Constant"() {value = dense_resource<__elided__> : tensor<128xf32>} : () -> tensor<128xf32>
    %94 = "onnx.Constant"() {value = dense_resource<__elided__> : tensor<512x128x1x1xf32>} : () -> tensor<512x128x1x1xf32>
    %95 = "onnx.Constant"() {value = dense_resource<__elided__> : tensor<512xf32>} : () -> tensor<512xf32>
    %96 = "onnx.Constant"() {value = dense_resource<__elided__> : tensor<512xf32>} : () -> tensor<512xf32>
    %97 = "onnx.Constant"() {value = dense_resource<__elided__> : tensor<512xf32>} : () -> tensor<512xf32>
    %98 = "onnx.Constant"() {value = dense_resource<__elided__> : tensor<512xf32>} : () -> tensor<512xf32>
    %99 = "onnx.Constant"() {value = dense_resource<__elided__> : tensor<512xf32>} : () -> tensor<512xf32>
    %100 = "onnx.Constant"() {value = dense_resource<__elided__> : tensor<128x512x1x1xf32>} : () -> tensor<128x512x1x1xf32>
    %101 = "onnx.Constant"() {value = dense_resource<__elided__> : tensor<128xf32>} : () -> tensor<128xf32>
    %102 = "onnx.Constant"() {value = dense_resource<__elided__> : tensor<128xf32>} : () -> tensor<128xf32>
    %103 = "onnx.Constant"() {value = dense_resource<__elided__> : tensor<128xf32>} : () -> tensor<128xf32>
    %104 = "onnx.Constant"() {value = dense_resource<__elided__> : tensor<128xf32>} : () -> tensor<128xf32>
    %105 = "onnx.Constant"() {value = dense_resource<__elided__> : tensor<128xf32>} : () -> tensor<128xf32>
    %106 = "onnx.Constant"() {value = dense_resource<__elided__> : tensor<128x128x3x3xf32>} : () -> tensor<128x128x3x3xf32>
    %107 = "onnx.Constant"() {value = dense_resource<__elided__> : tensor<128xf32>} : () -> tensor<128xf32>
    %108 = "onnx.Constant"() {value = dense_resource<__elided__> : tensor<128xf32>} : () -> tensor<128xf32>
    %109 = "onnx.Constant"() {value = dense_resource<__elided__> : tensor<128xf32>} : () -> tensor<128xf32>
    %110 = "onnx.Constant"() {value = dense_resource<__elided__> : tensor<128xf32>} : () -> tensor<128xf32>
    %111 = "onnx.Constant"() {value = dense_resource<__elided__> : tensor<512x128x1x1xf32>} : () -> tensor<512x128x1x1xf32>
    %112 = "onnx.Constant"() {value = dense_resource<__elided__> : tensor<512xf32>} : () -> tensor<512xf32>
    %113 = "onnx.Constant"() {value = dense_resource<__elided__> : tensor<512xf32>} : () -> tensor<512xf32>
    %114 = "onnx.Constant"() {value = dense_resource<__elided__> : tensor<512xf32>} : () -> tensor<512xf32>
    %115 = "onnx.Constant"() {value = dense_resource<__elided__> : tensor<512xf32>} : () -> tensor<512xf32>
    %116 = "onnx.Constant"() {value = dense_resource<__elided__> : tensor<512xf32>} : () -> tensor<512xf32>
    %117 = "onnx.Constant"() {value = dense_resource<__elided__> : tensor<128x512x1x1xf32>} : () -> tensor<128x512x1x1xf32>
    %118 = "onnx.Constant"() {value = dense_resource<__elided__> : tensor<128xf32>} : () -> tensor<128xf32>
    %119 = "onnx.Constant"() {value = dense_resource<__elided__> : tensor<128xf32>} : () -> tensor<128xf32>
    %120 = "onnx.Constant"() {value = dense_resource<__elided__> : tensor<128xf32>} : () -> tensor<128xf32>
    %121 = "onnx.Constant"() {value = dense_resource<__elided__> : tensor<128xf32>} : () -> tensor<128xf32>
    %122 = "onnx.Constant"() {value = dense_resource<__elided__> : tensor<128xf32>} : () -> tensor<128xf32>
    %123 = "onnx.Constant"() {value = dense_resource<__elided__> : tensor<128x128x3x3xf32>} : () -> tensor<128x128x3x3xf32>
    %124 = "onnx.Constant"() {value = dense_resource<__elided__> : tensor<128xf32>} : () -> tensor<128xf32>
    %125 = "onnx.Constant"() {value = dense_resource<__elided__> : tensor<128xf32>} : () -> tensor<128xf32>
    %126 = "onnx.Constant"() {value = dense_resource<__elided__> : tensor<128xf32>} : () -> tensor<128xf32>
    %127 = "onnx.Constant"() {value = dense_resource<__elided__> : tensor<128xf32>} : () -> tensor<128xf32>
    %128 = "onnx.Constant"() {value = dense_resource<__elided__> : tensor<512x128x1x1xf32>} : () -> tensor<512x128x1x1xf32>
    %129 = "onnx.Constant"() {value = dense_resource<__elided__> : tensor<512xf32>} : () -> tensor<512xf32>
    %130 = "onnx.Constant"() {value = dense_resource<__elided__> : tensor<512xf32>} : () -> tensor<512xf32>
    %131 = "onnx.Constant"() {value = dense_resource<__elided__> : tensor<512xf32>} : () -> tensor<512xf32>
    %132 = "onnx.Constant"() {value = dense_resource<__elided__> : tensor<512xf32>} : () -> tensor<512xf32>
    %133 = "onnx.Constant"() {value = dense_resource<__elided__> : tensor<512xf32>} : () -> tensor<512xf32>
    %134 = "onnx.Constant"() {value = dense_resource<__elided__> : tensor<256x512x1x1xf32>} : () -> tensor<256x512x1x1xf32>
    %135 = "onnx.Constant"() {value = dense_resource<__elided__> : tensor<256xf32>} : () -> tensor<256xf32>
    %136 = "onnx.Constant"() {value = dense_resource<__elided__> : tensor<256xf32>} : () -> tensor<256xf32>
    %137 = "onnx.Constant"() {value = dense_resource<__elided__> : tensor<256xf32>} : () -> tensor<256xf32>
    %138 = "onnx.Constant"() {value = dense_resource<__elided__> : tensor<256xf32>} : () -> tensor<256xf32>
    %139 = "onnx.Constant"() {value = dense_resource<__elided__> : tensor<256xf32>} : () -> tensor<256xf32>
    %140 = "onnx.Constant"() {value = dense_resource<__elided__> : tensor<256x256x3x3xf32>} : () -> tensor<256x256x3x3xf32>
    %141 = "onnx.Constant"() {value = dense_resource<__elided__> : tensor<256xf32>} : () -> tensor<256xf32>
    %142 = "onnx.Constant"() {value = dense_resource<__elided__> : tensor<256xf32>} : () -> tensor<256xf32>
    %143 = "onnx.Constant"() {value = dense_resource<__elided__> : tensor<256xf32>} : () -> tensor<256xf32>
    %144 = "onnx.Constant"() {value = dense_resource<__elided__> : tensor<256xf32>} : () -> tensor<256xf32>
    %145 = "onnx.Constant"() {value = dense_resource<__elided__> : tensor<1024x256x1x1xf32>} : () -> tensor<1024x256x1x1xf32>
    %146 = "onnx.Constant"() {value = dense_resource<__elided__> : tensor<1024xf32>} : () -> tensor<1024xf32>
    %147 = "onnx.Constant"() {value = dense_resource<__elided__> : tensor<1024xf32>} : () -> tensor<1024xf32>
    %148 = "onnx.Constant"() {value = dense_resource<__elided__> : tensor<1024xf32>} : () -> tensor<1024xf32>
    %149 = "onnx.Constant"() {value = dense_resource<__elided__> : tensor<1024xf32>} : () -> tensor<1024xf32>
    %150 = "onnx.Constant"() {value = dense_resource<__elided__> : tensor<1024xf32>} : () -> tensor<1024xf32>
    %151 = "onnx.Constant"() {value = dense_resource<__elided__> : tensor<1024x512x1x1xf32>} : () -> tensor<1024x512x1x1xf32>
    %152 = "onnx.Constant"() {value = dense_resource<__elided__> : tensor<1024xf32>} : () -> tensor<1024xf32>
    %153 = "onnx.Constant"() {value = dense_resource<__elided__> : tensor<1024xf32>} : () -> tensor<1024xf32>
    %154 = "onnx.Constant"() {value = dense_resource<__elided__> : tensor<1024xf32>} : () -> tensor<1024xf32>
    %155 = "onnx.Constant"() {value = dense_resource<__elided__> : tensor<1024xf32>} : () -> tensor<1024xf32>
    %156 = "onnx.Constant"() {value = dense_resource<__elided__> : tensor<256x1024x1x1xf32>} : () -> tensor<256x1024x1x1xf32>
    %157 = "onnx.Constant"() {value = dense_resource<__elided__> : tensor<256xf32>} : () -> tensor<256xf32>
    %158 = "onnx.Constant"() {value = dense_resource<__elided__> : tensor<256xf32>} : () -> tensor<256xf32>
    %159 = "onnx.Constant"() {value = dense_resource<__elided__> : tensor<256xf32>} : () -> tensor<256xf32>
    %160 = "onnx.Constant"() {value = dense_resource<__elided__> : tensor<256xf32>} : () -> tensor<256xf32>
    %161 = "onnx.Constant"() {value = dense_resource<__elided__> : tensor<256xf32>} : () -> tensor<256xf32>
    %162 = "onnx.Constant"() {value = dense_resource<__elided__> : tensor<256x256x3x3xf32>} : () -> tensor<256x256x3x3xf32>
    %163 = "onnx.Constant"() {value = dense_resource<__elided__> : tensor<256xf32>} : () -> tensor<256xf32>
    %164 = "onnx.Constant"() {value = dense_resource<__elided__> : tensor<256xf32>} : () -> tensor<256xf32>
    %165 = "onnx.Constant"() {value = dense_resource<__elided__> : tensor<256xf32>} : () -> tensor<256xf32>
    %166 = "onnx.Constant"() {value = dense_resource<__elided__> : tensor<256xf32>} : () -> tensor<256xf32>
    %167 = "onnx.Constant"() {value = dense_resource<__elided__> : tensor<1024x256x1x1xf32>} : () -> tensor<1024x256x1x1xf32>
    %168 = "onnx.Constant"() {value = dense_resource<__elided__> : tensor<1024xf32>} : () -> tensor<1024xf32>
    %169 = "onnx.Constant"() {value = dense_resource<__elided__> : tensor<1024xf32>} : () -> tensor<1024xf32>
    %170 = "onnx.Constant"() {value = dense_resource<__elided__> : tensor<1024xf32>} : () -> tensor<1024xf32>
    %171 = "onnx.Constant"() {value = dense_resource<__elided__> : tensor<1024xf32>} : () -> tensor<1024xf32>
    %172 = "onnx.Constant"() {value = dense_resource<__elided__> : tensor<1024xf32>} : () -> tensor<1024xf32>
    %173 = "onnx.Constant"() {value = dense_resource<__elided__> : tensor<256x1024x1x1xf32>} : () -> tensor<256x1024x1x1xf32>
    %174 = "onnx.Constant"() {value = dense_resource<__elided__> : tensor<256xf32>} : () -> tensor<256xf32>
    %175 = "onnx.Constant"() {value = dense_resource<__elided__> : tensor<256xf32>} : () -> tensor<256xf32>
    %176 = "onnx.Constant"() {value = dense_resource<__elided__> : tensor<256xf32>} : () -> tensor<256xf32>
    %177 = "onnx.Constant"() {value = dense_resource<__elided__> : tensor<256xf32>} : () -> tensor<256xf32>
    %178 = "onnx.Constant"() {value = dense_resource<__elided__> : tensor<256xf32>} : () -> tensor<256xf32>
    %179 = "onnx.Constant"() {value = dense_resource<__elided__> : tensor<256x256x3x3xf32>} : () -> tensor<256x256x3x3xf32>
    %180 = "onnx.Constant"() {value = dense_resource<__elided__> : tensor<256xf32>} : () -> tensor<256xf32>
    %181 = "onnx.Constant"() {value = dense_resource<__elided__> : tensor<256xf32>} : () -> tensor<256xf32>
    %182 = "onnx.Constant"() {value = dense_resource<__elided__> : tensor<256xf32>} : () -> tensor<256xf32>
    %183 = "onnx.Constant"() {value = dense_resource<__elided__> : tensor<256xf32>} : () -> tensor<256xf32>
    %184 = "onnx.Constant"() {value = dense_resource<__elided__> : tensor<1024x256x1x1xf32>} : () -> tensor<1024x256x1x1xf32>
    %185 = "onnx.Constant"() {value = dense_resource<__elided__> : tensor<1024xf32>} : () -> tensor<1024xf32>
    %186 = "onnx.Constant"() {value = dense_resource<__elided__> : tensor<1024xf32>} : () -> tensor<1024xf32>
    %187 = "onnx.Constant"() {value = dense_resource<__elided__> : tensor<1024xf32>} : () -> tensor<1024xf32>
    %188 = "onnx.Constant"() {value = dense_resource<__elided__> : tensor<1024xf32>} : () -> tensor<1024xf32>
    %189 = "onnx.Constant"() {value = dense_resource<__elided__> : tensor<1024xf32>} : () -> tensor<1024xf32>
    %190 = "onnx.Constant"() {value = dense_resource<__elided__> : tensor<256x1024x1x1xf32>} : () -> tensor<256x1024x1x1xf32>
    %191 = "onnx.Constant"() {value = dense_resource<__elided__> : tensor<256xf32>} : () -> tensor<256xf32>
    %192 = "onnx.Constant"() {value = dense_resource<__elided__> : tensor<256xf32>} : () -> tensor<256xf32>
    %193 = "onnx.Constant"() {value = dense_resource<__elided__> : tensor<256xf32>} : () -> tensor<256xf32>
    %194 = "onnx.Constant"() {value = dense_resource<__elided__> : tensor<256xf32>} : () -> tensor<256xf32>
    %195 = "onnx.Constant"() {value = dense_resource<__elided__> : tensor<256xf32>} : () -> tensor<256xf32>
    %196 = "onnx.Constant"() {value = dense_resource<__elided__> : tensor<256x256x3x3xf32>} : () -> tensor<256x256x3x3xf32>
    %197 = "onnx.Constant"() {value = dense_resource<__elided__> : tensor<256xf32>} : () -> tensor<256xf32>
    %198 = "onnx.Constant"() {value = dense_resource<__elided__> : tensor<256xf32>} : () -> tensor<256xf32>
    %199 = "onnx.Constant"() {value = dense_resource<__elided__> : tensor<256xf32>} : () -> tensor<256xf32>
    %200 = "onnx.Constant"() {value = dense_resource<__elided__> : tensor<256xf32>} : () -> tensor<256xf32>
    %201 = "onnx.Constant"() {value = dense_resource<__elided__> : tensor<1024x256x1x1xf32>} : () -> tensor<1024x256x1x1xf32>
    %202 = "onnx.Constant"() {value = dense_resource<__elided__> : tensor<1024xf32>} : () -> tensor<1024xf32>
    %203 = "onnx.Constant"() {value = dense_resource<__elided__> : tensor<1024xf32>} : () -> tensor<1024xf32>
    %204 = "onnx.Constant"() {value = dense_resource<__elided__> : tensor<1024xf32>} : () -> tensor<1024xf32>
    %205 = "onnx.Constant"() {value = dense_resource<__elided__> : tensor<1024xf32>} : () -> tensor<1024xf32>
    %206 = "onnx.Constant"() {value = dense_resource<__elided__> : tensor<1024xf32>} : () -> tensor<1024xf32>
    %207 = "onnx.Constant"() {value = dense_resource<__elided__> : tensor<256x1024x1x1xf32>} : () -> tensor<256x1024x1x1xf32>
    %208 = "onnx.Constant"() {value = dense_resource<__elided__> : tensor<256xf32>} : () -> tensor<256xf32>
    %209 = "onnx.Constant"() {value = dense_resource<__elided__> : tensor<256xf32>} : () -> tensor<256xf32>
    %210 = "onnx.Constant"() {value = dense_resource<__elided__> : tensor<256xf32>} : () -> tensor<256xf32>
    %211 = "onnx.Constant"() {value = dense_resource<__elided__> : tensor<256xf32>} : () -> tensor<256xf32>
    %212 = "onnx.Constant"() {value = dense_resource<__elided__> : tensor<256xf32>} : () -> tensor<256xf32>
    %213 = "onnx.Constant"() {value = dense_resource<__elided__> : tensor<256x256x3x3xf32>} : () -> tensor<256x256x3x3xf32>
    %214 = "onnx.Constant"() {value = dense_resource<__elided__> : tensor<256xf32>} : () -> tensor<256xf32>
    %215 = "onnx.Constant"() {value = dense_resource<__elided__> : tensor<256xf32>} : () -> tensor<256xf32>
    %216 = "onnx.Constant"() {value = dense_resource<__elided__> : tensor<256xf32>} : () -> tensor<256xf32>
    %217 = "onnx.Constant"() {value = dense_resource<__elided__> : tensor<256xf32>} : () -> tensor<256xf32>
    %218 = "onnx.Constant"() {value = dense_resource<__elided__> : tensor<1024x256x1x1xf32>} : () -> tensor<1024x256x1x1xf32>
    %219 = "onnx.Constant"() {value = dense_resource<__elided__> : tensor<1024xf32>} : () -> tensor<1024xf32>
    %220 = "onnx.Constant"() {value = dense_resource<__elided__> : tensor<1024xf32>} : () -> tensor<1024xf32>
    %221 = "onnx.Constant"() {value = dense_resource<__elided__> : tensor<1024xf32>} : () -> tensor<1024xf32>
    %222 = "onnx.Constant"() {value = dense_resource<__elided__> : tensor<1024xf32>} : () -> tensor<1024xf32>
    %223 = "onnx.Constant"() {value = dense_resource<__elided__> : tensor<1024xf32>} : () -> tensor<1024xf32>
    %224 = "onnx.Constant"() {value = dense_resource<__elided__> : tensor<256x1024x1x1xf32>} : () -> tensor<256x1024x1x1xf32>
    %225 = "onnx.Constant"() {value = dense_resource<__elided__> : tensor<256xf32>} : () -> tensor<256xf32>
    %226 = "onnx.Constant"() {value = dense_resource<__elided__> : tensor<256xf32>} : () -> tensor<256xf32>
    %227 = "onnx.Constant"() {value = dense_resource<__elided__> : tensor<256xf32>} : () -> tensor<256xf32>
    %228 = "onnx.Constant"() {value = dense_resource<__elided__> : tensor<256xf32>} : () -> tensor<256xf32>
    %229 = "onnx.Constant"() {value = dense_resource<__elided__> : tensor<256xf32>} : () -> tensor<256xf32>
    %230 = "onnx.Constant"() {value = dense_resource<__elided__> : tensor<256x256x3x3xf32>} : () -> tensor<256x256x3x3xf32>
    %231 = "onnx.Constant"() {value = dense_resource<__elided__> : tensor<256xf32>} : () -> tensor<256xf32>
    %232 = "onnx.Constant"() {value = dense_resource<__elided__> : tensor<256xf32>} : () -> tensor<256xf32>
    %233 = "onnx.Constant"() {value = dense_resource<__elided__> : tensor<256xf32>} : () -> tensor<256xf32>
    %234 = "onnx.Constant"() {value = dense_resource<__elided__> : tensor<256xf32>} : () -> tensor<256xf32>
    %235 = "onnx.Constant"() {value = dense_resource<__elided__> : tensor<1024x256x1x1xf32>} : () -> tensor<1024x256x1x1xf32>
    %236 = "onnx.Constant"() {value = dense_resource<__elided__> : tensor<1024xf32>} : () -> tensor<1024xf32>
    %237 = "onnx.Constant"() {value = dense_resource<__elided__> : tensor<1024xf32>} : () -> tensor<1024xf32>
    %238 = "onnx.Constant"() {value = dense_resource<__elided__> : tensor<1024xf32>} : () -> tensor<1024xf32>
    %239 = "onnx.Constant"() {value = dense_resource<__elided__> : tensor<1024xf32>} : () -> tensor<1024xf32>
    %240 = "onnx.Constant"() {value = dense_resource<__elided__> : tensor<1024xf32>} : () -> tensor<1024xf32>
    %241 = "onnx.Constant"() {value = dense_resource<__elided__> : tensor<512x1024x1x1xf32>} : () -> tensor<512x1024x1x1xf32>
    %242 = "onnx.Constant"() {value = dense_resource<__elided__> : tensor<512xf32>} : () -> tensor<512xf32>
    %243 = "onnx.Constant"() {value = dense_resource<__elided__> : tensor<512xf32>} : () -> tensor<512xf32>
    %244 = "onnx.Constant"() {value = dense_resource<__elided__> : tensor<512xf32>} : () -> tensor<512xf32>
    %245 = "onnx.Constant"() {value = dense_resource<__elided__> : tensor<512xf32>} : () -> tensor<512xf32>
    %246 = "onnx.Constant"() {value = dense_resource<__elided__> : tensor<512xf32>} : () -> tensor<512xf32>
    %247 = "onnx.Constant"() {value = dense_resource<__elided__> : tensor<512x512x3x3xf32>} : () -> tensor<512x512x3x3xf32>
    %248 = "onnx.Constant"() {value = dense_resource<__elided__> : tensor<512xf32>} : () -> tensor<512xf32>
    %249 = "onnx.Constant"() {value = dense_resource<__elided__> : tensor<512xf32>} : () -> tensor<512xf32>
    %250 = "onnx.Constant"() {value = dense_resource<__elided__> : tensor<512xf32>} : () -> tensor<512xf32>
    %251 = "onnx.Constant"() {value = dense_resource<__elided__> : tensor<512xf32>} : () -> tensor<512xf32>
    %252 = "onnx.Constant"() {value = dense_resource<__elided__> : tensor<2048x512x1x1xf32>} : () -> tensor<2048x512x1x1xf32>
    %253 = "onnx.Constant"() {value = dense_resource<__elided__> : tensor<2048xf32>} : () -> tensor<2048xf32>
    %254 = "onnx.Constant"() {value = dense_resource<__elided__> : tensor<2048xf32>} : () -> tensor<2048xf32>
    %255 = "onnx.Constant"() {value = dense_resource<__elided__> : tensor<2048xf32>} : () -> tensor<2048xf32>
    %256 = "onnx.Constant"() {value = dense_resource<__elided__> : tensor<2048xf32>} : () -> tensor<2048xf32>
    %257 = "onnx.Constant"() {value = dense_resource<__elided__> : tensor<2048xf32>} : () -> tensor<2048xf32>
    %258 = "onnx.Constant"() {value = dense_resource<__elided__> : tensor<2048x1024x1x1xf32>} : () -> tensor<2048x1024x1x1xf32>
    %259 = "onnx.Constant"() {value = dense_resource<__elided__> : tensor<2048xf32>} : () -> tensor<2048xf32>
    %260 = "onnx.Constant"() {value = dense_resource<__elided__> : tensor<2048xf32>} : () -> tensor<2048xf32>
    %261 = "onnx.Constant"() {value = dense_resource<__elided__> : tensor<2048xf32>} : () -> tensor<2048xf32>
    %262 = "onnx.Constant"() {value = dense_resource<__elided__> : tensor<2048xf32>} : () -> tensor<2048xf32>
    %263 = "onnx.Constant"() {value = dense_resource<__elided__> : tensor<512x2048x1x1xf32>} : () -> tensor<512x2048x1x1xf32>
    %264 = "onnx.Constant"() {value = dense_resource<__elided__> : tensor<512xf32>} : () -> tensor<512xf32>
    %265 = "onnx.Constant"() {value = dense_resource<__elided__> : tensor<512xf32>} : () -> tensor<512xf32>
    %266 = "onnx.Constant"() {value = dense_resource<__elided__> : tensor<512xf32>} : () -> tensor<512xf32>
    %267 = "onnx.Constant"() {value = dense_resource<__elided__> : tensor<512xf32>} : () -> tensor<512xf32>
    %268 = "onnx.Constant"() {value = dense_resource<__elided__> : tensor<512xf32>} : () -> tensor<512xf32>
    %269 = "onnx.Constant"() {value = dense_resource<__elided__> : tensor<512x512x3x3xf32>} : () -> tensor<512x512x3x3xf32>
    %270 = "onnx.Constant"() {value = dense_resource<__elided__> : tensor<512xf32>} : () -> tensor<512xf32>
    %271 = "onnx.Constant"() {value = dense_resource<__elided__> : tensor<512xf32>} : () -> tensor<512xf32>
    %272 = "onnx.Constant"() {value = dense_resource<__elided__> : tensor<512xf32>} : () -> tensor<512xf32>
    %273 = "onnx.Constant"() {value = dense_resource<__elided__> : tensor<512xf32>} : () -> tensor<512xf32>
    %274 = "onnx.Constant"() {value = dense_resource<__elided__> : tensor<2048x512x1x1xf32>} : () -> tensor<2048x512x1x1xf32>
    %275 = "onnx.Constant"() {value = dense_resource<__elided__> : tensor<2048xf32>} : () -> tensor<2048xf32>
    %276 = "onnx.Constant"() {value = dense_resource<__elided__> : tensor<2048xf32>} : () -> tensor<2048xf32>
    %277 = "onnx.Constant"() {value = dense_resource<__elided__> : tensor<2048xf32>} : () -> tensor<2048xf32>
    %278 = "onnx.Constant"() {value = dense_resource<__elided__> : tensor<2048xf32>} : () -> tensor<2048xf32>
    %279 = "onnx.Constant"() {value = dense_resource<__elided__> : tensor<2048xf32>} : () -> tensor<2048xf32>
    %280 = "onnx.Constant"() {value = dense_resource<__elided__> : tensor<512x2048x1x1xf32>} : () -> tensor<512x2048x1x1xf32>
    %281 = "onnx.Constant"() {value = dense_resource<__elided__> : tensor<512xf32>} : () -> tensor<512xf32>
    %282 = "onnx.Constant"() {value = dense_resource<__elided__> : tensor<512xf32>} : () -> tensor<512xf32>
    %283 = "onnx.Constant"() {value = dense_resource<__elided__> : tensor<512xf32>} : () -> tensor<512xf32>
    %284 = "onnx.Constant"() {value = dense_resource<__elided__> : tensor<512xf32>} : () -> tensor<512xf32>
    %285 = "onnx.Constant"() {value = dense_resource<__elided__> : tensor<512xf32>} : () -> tensor<512xf32>
    %286 = "onnx.Constant"() {value = dense_resource<__elided__> : tensor<512x512x3x3xf32>} : () -> tensor<512x512x3x3xf32>
    %287 = "onnx.Constant"() {value = dense_resource<__elided__> : tensor<512xf32>} : () -> tensor<512xf32>
    %288 = "onnx.Constant"() {value = dense_resource<__elided__> : tensor<512xf32>} : () -> tensor<512xf32>
    %289 = "onnx.Constant"() {value = dense_resource<__elided__> : tensor<512xf32>} : () -> tensor<512xf32>
    %290 = "onnx.Constant"() {value = dense_resource<__elided__> : tensor<512xf32>} : () -> tensor<512xf32>
    %291 = "onnx.Constant"() {value = dense_resource<__elided__> : tensor<2048x512x1x1xf32>} : () -> tensor<2048x512x1x1xf32>
    %292 = "onnx.Constant"() {value = dense_resource<__elided__> : tensor<2048xf32>} : () -> tensor<2048xf32>
    %293 = "onnx.Constant"() {value = dense_resource<__elided__> : tensor<2048xf32>} : () -> tensor<2048xf32>
    %294 = "onnx.Constant"() {value = dense_resource<__elided__> : tensor<2048xf32>} : () -> tensor<2048xf32>
    %295 = "onnx.Constant"() {value = dense_resource<__elided__> : tensor<2048xf32>} : () -> tensor<2048xf32>
    %296 = "onnx.Constant"() {value = dense_resource<__elided__> : tensor<2048xf32>} : () -> tensor<2048xf32>
    %297 = "onnx.Constant"() {value = dense_resource<__elided__> : tensor<1000x2048xf32>} : () -> tensor<1000x2048xf32>
    %298 = "onnx.Constant"() {value = dense_resource<__elided__> : tensor<1000xf32>} : () -> tensor<1000xf32>
    %299 = "onnx.NoValue"() {value} : () -> none
    %300 = "onnx.Conv"(%arg0, %0, %299) {dilations = [1, 1], group = 1 : si64, kernel_shape = [7, 7], onnx_node_name = "resnetv17_conv0_fwd", pads = [3, 3, 3, 3], strides = [2, 2]} : (tensor<1x3x224x224xf32>, tensor<64x3x7x7xf32>, none) -> tensor<*xf32>
    %301 = "onnx.BatchNormalizationInferenceMode"(%300, %1, %2, %3, %4) {epsilon = 9.99999974E-6 : f32, momentum = 0.899999976 : f32, onnx_node_name = "resnetv17_batchnorm0_fwd"} : (tensor<*xf32>, tensor<64xf32>, tensor<64xf32>, tensor<64xf32>, tensor<64xf32>) -> tensor<*xf32>
    %302 = "onnx.Relu"(%301) {onnx_node_name = "resnetv17_relu0_fwd"} : (tensor<*xf32>) -> tensor<*xf32>
    %303 = "onnx.MaxPoolSingleOut"(%302) {kernel_shape = [3, 3], onnx_node_name = "resnetv17_pool0_fwd", pads = [1, 1, 1, 1], strides = [2, 2]} : (tensor<*xf32>) -> tensor<*xf32>
    %304 = "onnx.Conv"(%303, %5, %6) {dilations = [1, 1], group = 1 : si64, kernel_shape = [1, 1], onnx_node_name = "resnetv17_stage1_conv0_fwd", pads = [0, 0, 0, 0], strides = [1, 1]} : (tensor<*xf32>, tensor<64x64x1x1xf32>, tensor<64xf32>) -> tensor<*xf32>
    %305 = "onnx.BatchNormalizationInferenceMode"(%304, %7, %8, %9, %10) {epsilon = 9.99999974E-6 : f32, momentum = 0.899999976 : f32, onnx_node_name = "resnetv17_stage1_batchnorm0_fwd"} : (tensor<*xf32>, tensor<64xf32>, tensor<64xf32>, tensor<64xf32>, tensor<64xf32>) -> tensor<*xf32>
    %306 = "onnx.Relu"(%305) {onnx_node_name = "resnetv17_stage1_relu0_fwd"} : (tensor<*xf32>) -> tensor<*xf32>
    %307 = "onnx.NoValue"() {value} : () -> none
    %308 = "onnx.Conv"(%306, %11, %307) {dilations = [1, 1], group = 1 : si64, kernel_shape = [3, 3], onnx_node_name = "resnetv17_stage1_conv1_fwd", pads = [1, 1, 1, 1], strides = [1, 1]} : (tensor<*xf32>, tensor<64x64x3x3xf32>, none) -> tensor<*xf32>
    %309 = "onnx.BatchNormalizationInferenceMode"(%308, %12, %13, %14, %15) {epsilon = 9.99999974E-6 : f32, momentum = 0.899999976 : f32, onnx_node_name = "resnetv17_stage1_batchnorm1_fwd"} : (tensor<*xf32>, tensor<64xf32>, tensor<64xf32>, tensor<64xf32>, tensor<64xf32>) -> tensor<*xf32>
    %310 = "onnx.Relu"(%309) {onnx_node_name = "resnetv17_stage1_relu1_fwd"} : (tensor<*xf32>) -> tensor<*xf32>
    %311 = "onnx.Conv"(%310, %16, %17) {dilations = [1, 1], group = 1 : si64, kernel_shape = [1, 1], onnx_node_name = "resnetv17_stage1_conv2_fwd", pads = [0, 0, 0, 0], strides = [1, 1]} : (tensor<*xf32>, tensor<256x64x1x1xf32>, tensor<256xf32>) -> tensor<*xf32>
    %312 = "onnx.BatchNormalizationInferenceMode"(%311, %18, %19, %20, %21) {epsilon = 9.99999974E-6 : f32, momentum = 0.899999976 : f32, onnx_node_name = "resnetv17_stage1_batchnorm2_fwd"} : (tensor<*xf32>, tensor<256xf32>, tensor<256xf32>, tensor<256xf32>, tensor<256xf32>) -> tensor<*xf32>
    %313 = "onnx.NoValue"() {value} : () -> none
    %314 = "onnx.Conv"(%303, %22, %313) {dilations = [1, 1], group = 1 : si64, kernel_shape = [1, 1], onnx_node_name = "resnetv17_stage1_conv3_fwd", pads = [0, 0, 0, 0], strides = [1, 1]} : (tensor<*xf32>, tensor<256x64x1x1xf32>, none) -> tensor<*xf32>
    %315 = "onnx.BatchNormalizationInferenceMode"(%314, %23, %24, %25, %26) {epsilon = 9.99999974E-6 : f32, momentum = 0.899999976 : f32, onnx_node_name = "resnetv17_stage1_batchnorm3_fwd"} : (tensor<*xf32>, tensor<256xf32>, tensor<256xf32>, tensor<256xf32>, tensor<256xf32>) -> tensor<*xf32>
    %316 = "onnx.Add"(%312, %315) {onnx_node_name = "resnetv17_stage1__plus0"} : (tensor<*xf32>, tensor<*xf32>) -> tensor<*xf32>
    %317 = "onnx.Relu"(%316) {onnx_node_name = "resnetv17_stage1_activation0"} : (tensor<*xf32>) -> tensor<*xf32>
    %318 = "onnx.Conv"(%317, %27, %28) {dilations = [1, 1], group = 1 : si64, kernel_shape = [1, 1], onnx_node_name = "resnetv17_stage1_conv4_fwd", pads = [0, 0, 0, 0], strides = [1, 1]} : (tensor<*xf32>, tensor<64x256x1x1xf32>, tensor<64xf32>) -> tensor<*xf32>
    %319 = "onnx.BatchNormalizationInferenceMode"(%318, %29, %30, %31, %32) {epsilon = 9.99999974E-6 : f32, momentum = 0.899999976 : f32, onnx_node_name = "resnetv17_stage1_batchnorm4_fwd"} : (tensor<*xf32>, tensor<64xf32>, tensor<64xf32>, tensor<64xf32>, tensor<64xf32>) -> tensor<*xf32>
    %320 = "onnx.Relu"(%319) {onnx_node_name = "resnetv17_stage1_relu2_fwd"} : (tensor<*xf32>) -> tensor<*xf32>
    %321 = "onnx.NoValue"() {value} : () -> none
    %322 = "onnx.Conv"(%320, %33, %321) {dilations = [1, 1], group = 1 : si64, kernel_shape = [3, 3], onnx_node_name = "resnetv17_stage1_conv5_fwd", pads = [1, 1, 1, 1], strides = [1, 1]} : (tensor<*xf32>, tensor<64x64x3x3xf32>, none) -> tensor<*xf32>
    %323 = "onnx.BatchNormalizationInferenceMode"(%322, %34, %35, %36, %37) {epsilon = 9.99999974E-6 : f32, momentum = 0.899999976 : f32, onnx_node_name = "resnetv17_stage1_batchnorm5_fwd"} : (tensor<*xf32>, tensor<64xf32>, tensor<64xf32>, tensor<64xf32>, tensor<64xf32>) -> tensor<*xf32>
    %324 = "onnx.Relu"(%323) {onnx_node_name = "resnetv17_stage1_relu3_fwd"} : (tensor<*xf32>) -> tensor<*xf32>
    %325 = "onnx.Conv"(%324, %38, %39) {dilations = [1, 1], group = 1 : si64, kernel_shape = [1, 1], onnx_node_name = "resnetv17_stage1_conv6_fwd", pads = [0, 0, 0, 0], strides = [1, 1]} : (tensor<*xf32>, tensor<256x64x1x1xf32>, tensor<256xf32>) -> tensor<*xf32>
    %326 = "onnx.BatchNormalizationInferenceMode"(%325, %40, %41, %42, %43) {epsilon = 9.99999974E-6 : f32, momentum = 0.899999976 : f32, onnx_node_name = "resnetv17_stage1_batchnorm6_fwd"} : (tensor<*xf32>, tensor<256xf32>, tensor<256xf32>, tensor<256xf32>, tensor<256xf32>) -> tensor<*xf32>
    %327 = "onnx.Add"(%326, %317) {onnx_node_name = "resnetv17_stage1__plus1"} : (tensor<*xf32>, tensor<*xf32>) -> tensor<*xf32>
    %328 = "onnx.Relu"(%327) {onnx_node_name = "resnetv17_stage1_activation1"} : (tensor<*xf32>) -> tensor<*xf32>
    %329 = "onnx.Conv"(%328, %44, %45) {dilations = [1, 1], group = 1 : si64, kernel_shape = [1, 1], onnx_node_name = "resnetv17_stage1_conv7_fwd", pads = [0, 0, 0, 0], strides = [1, 1]} : (tensor<*xf32>, tensor<64x256x1x1xf32>, tensor<64xf32>) -> tensor<*xf32>
    %330 = "onnx.BatchNormalizationInferenceMode"(%329, %46, %47, %48, %49) {epsilon = 9.99999974E-6 : f32, momentum = 0.899999976 : f32, onnx_node_name = "resnetv17_stage1_batchnorm7_fwd"} : (tensor<*xf32>, tensor<64xf32>, tensor<64xf32>, tensor<64xf32>, tensor<64xf32>) -> tensor<*xf32>
    %331 = "onnx.Relu"(%330) {onnx_node_name = "resnetv17_stage1_relu4_fwd"} : (tensor<*xf32>) -> tensor<*xf32>
    %332 = "onnx.NoValue"() {value} : () -> none
    %333 = "onnx.Conv"(%331, %50, %332) {dilations = [1, 1], group = 1 : si64, kernel_shape = [3, 3], onnx_node_name = "resnetv17_stage1_conv8_fwd", pads = [1, 1, 1, 1], strides = [1, 1]} : (tensor<*xf32>, tensor<64x64x3x3xf32>, none) -> tensor<*xf32>
    %334 = "onnx.BatchNormalizationInferenceMode"(%333, %51, %52, %53, %54) {epsilon = 9.99999974E-6 : f32, momentum = 0.899999976 : f32, onnx_node_name = "resnetv17_stage1_batchnorm8_fwd"} : (tensor<*xf32>, tensor<64xf32>, tensor<64xf32>, tensor<64xf32>, tensor<64xf32>) -> tensor<*xf32>
    %335 = "onnx.Relu"(%334) {onnx_node_name = "resnetv17_stage1_relu5_fwd"} : (tensor<*xf32>) -> tensor<*xf32>
    %336 = "onnx.Conv"(%335, %55, %56) {dilations = [1, 1], group = 1 : si64, kernel_shape = [1, 1], onnx_node_name = "resnetv17_stage1_conv9_fwd", pads = [0, 0, 0, 0], strides = [1, 1]} : (tensor<*xf32>, tensor<256x64x1x1xf32>, tensor<256xf32>) -> tensor<*xf32>
    %337 = "onnx.BatchNormalizationInferenceMode"(%336, %57, %58, %59, %60) {epsilon = 9.99999974E-6 : f32, momentum = 0.899999976 : f32, onnx_node_name = "resnetv17_stage1_batchnorm9_fwd"} : (tensor<*xf32>, tensor<256xf32>, tensor<256xf32>, tensor<256xf32>, tensor<256xf32>) -> tensor<*xf32>
    %338 = "onnx.Add"(%337, %328) {onnx_node_name = "resnetv17_stage1__plus2"} : (tensor<*xf32>, tensor<*xf32>) -> tensor<*xf32>
    %339 = "onnx.Relu"(%338) {onnx_node_name = "resnetv17_stage1_activation2"} : (tensor<*xf32>) -> tensor<*xf32>
    %340 = "onnx.Conv"(%339, %61, %62) {dilations = [1, 1], group = 1 : si64, kernel_shape = [1, 1], onnx_node_name = "resnetv17_stage2_conv0_fwd", pads = [0, 0, 0, 0], strides = [2, 2]} : (tensor<*xf32>, tensor<128x256x1x1xf32>, tensor<128xf32>) -> tensor<*xf32>
    %341 = "onnx.BatchNormalizationInferenceMode"(%340, %63, %64, %65, %66) {epsilon = 9.99999974E-6 : f32, momentum = 0.899999976 : f32, onnx_node_name = "resnetv17_stage2_batchnorm0_fwd"} : (tensor<*xf32>, tensor<128xf32>, tensor<128xf32>, tensor<128xf32>, tensor<128xf32>) -> tensor<*xf32>
    %342 = "onnx.Relu"(%341) {onnx_node_name = "resnetv17_stage2_relu0_fwd"} : (tensor<*xf32>) -> tensor<*xf32>
    %343 = "onnx.NoValue"() {value} : () -> none
    %344 = "onnx.Conv"(%342, %67, %343) {dilations = [1, 1], group = 1 : si64, kernel_shape = [3, 3], onnx_node_name = "resnetv17_stage2_conv1_fwd", pads = [1, 1, 1, 1], strides = [1, 1]} : (tensor<*xf32>, tensor<128x128x3x3xf32>, none) -> tensor<*xf32>
    %345 = "onnx.BatchNormalizationInferenceMode"(%344, %68, %69, %70, %71) {epsilon = 9.99999974E-6 : f32, momentum = 0.899999976 : f32, onnx_node_name = "resnetv17_stage2_batchnorm1_fwd"} : (tensor<*xf32>, tensor<128xf32>, tensor<128xf32>, tensor<128xf32>, tensor<128xf32>) -> tensor<*xf32>
    %346 = "onnx.Relu"(%345) {onnx_node_name = "resnetv17_stage2_relu1_fwd"} : (tensor<*xf32>) -> tensor<*xf32>
    %347 = "onnx.Conv"(%346, %72, %73) {dilations = [1, 1], group = 1 : si64, kernel_shape = [1, 1], onnx_node_name = "resnetv17_stage2_conv2_fwd", pads = [0, 0, 0, 0], strides = [1, 1]} : (tensor<*xf32>, tensor<512x128x1x1xf32>, tensor<512xf32>) -> tensor<*xf32>
    %348 = "onnx.BatchNormalizationInferenceMode"(%347, %74, %75, %76, %77) {epsilon = 9.99999974E-6 : f32, momentum = 0.899999976 : f32, onnx_node_name = "resnetv17_stage2_batchnorm2_fwd"} : (tensor<*xf32>, tensor<512xf32>, tensor<512xf32>, tensor<512xf32>, tensor<512xf32>) -> tensor<*xf32>
    %349 = "onnx.NoValue"() {value} : () -> none
    %350 = "onnx.Conv"(%339, %78, %349) {dilations = [1, 1], group = 1 : si64, kernel_shape = [1, 1], onnx_node_name = "resnetv17_stage2_conv3_fwd", pads = [0, 0, 0, 0], strides = [2, 2]} : (tensor<*xf32>, tensor<512x256x1x1xf32>, none) -> tensor<*xf32>
    %351 = "onnx.BatchNormalizationInferenceMode"(%350, %79, %80, %81, %82) {epsilon = 9.99999974E-6 : f32, momentum = 0.899999976 : f32, onnx_node_name = "resnetv17_stage2_batchnorm3_fwd"} : (tensor<*xf32>, tensor<512xf32>, tensor<512xf32>, tensor<512xf32>, tensor<512xf32>) -> tensor<*xf32>
    %352 = "onnx.Add"(%348, %351) {onnx_node_name = "resnetv17_stage2__plus0"} : (tensor<*xf32>, tensor<*xf32>) -> tensor<*xf32>
    %353 = "onnx.Relu"(%352) {onnx_node_name = "resnetv17_stage2_activation0"} : (tensor<*xf32>) -> tensor<*xf32>
    %354 = "onnx.Conv"(%353, %83, %84) {dilations = [1, 1], group = 1 : si64, kernel_shape = [1, 1], onnx_node_name = "resnetv17_stage2_conv4_fwd", pads = [0, 0, 0, 0], strides = [1, 1]} : (tensor<*xf32>, tensor<128x512x1x1xf32>, tensor<128xf32>) -> tensor<*xf32>
    %355 = "onnx.BatchNormalizationInferenceMode"(%354, %85, %86, %87, %88) {epsilon = 9.99999974E-6 : f32, momentum = 0.899999976 : f32, onnx_node_name = "resnetv17_stage2_batchnorm4_fwd"} : (tensor<*xf32>, tensor<128xf32>, tensor<128xf32>, tensor<128xf32>, tensor<128xf32>) -> tensor<*xf32>
    %356 = "onnx.Relu"(%355) {onnx_node_name = "resnetv17_stage2_relu2_fwd"} : (tensor<*xf32>) -> tensor<*xf32>
    %357 = "onnx.NoValue"() {value} : () -> none
    %358 = "onnx.Conv"(%356, %89, %357) {dilations = [1, 1], group = 1 : si64, kernel_shape = [3, 3], onnx_node_name = "resnetv17_stage2_conv5_fwd", pads = [1, 1, 1, 1], strides = [1, 1]} : (tensor<*xf32>, tensor<128x128x3x3xf32>, none) -> tensor<*xf32>
    %359 = "onnx.BatchNormalizationInferenceMode"(%358, %90, %91, %92, %93) {epsilon = 9.99999974E-6 : f32, momentum = 0.899999976 : f32, onnx_node_name = "resnetv17_stage2_batchnorm5_fwd"} : (tensor<*xf32>, tensor<128xf32>, tensor<128xf32>, tensor<128xf32>, tensor<128xf32>) -> tensor<*xf32>
    %360 = "onnx.Relu"(%359) {onnx_node_name = "resnetv17_stage2_relu3_fwd"} : (tensor<*xf32>) -> tensor<*xf32>
    %361 = "onnx.Conv"(%360, %94, %95) {dilations = [1, 1], group = 1 : si64, kernel_shape = [1, 1], onnx_node_name = "resnetv17_stage2_conv6_fwd", pads = [0, 0, 0, 0], strides = [1, 1]} : (tensor<*xf32>, tensor<512x128x1x1xf32>, tensor<512xf32>) -> tensor<*xf32>
    %362 = "onnx.BatchNormalizationInferenceMode"(%361, %96, %97, %98, %99) {epsilon = 9.99999974E-6 : f32, momentum = 0.899999976 : f32, onnx_node_name = "resnetv17_stage2_batchnorm6_fwd"} : (tensor<*xf32>, tensor<512xf32>, tensor<512xf32>, tensor<512xf32>, tensor<512xf32>) -> tensor<*xf32>
    %363 = "onnx.Add"(%362, %353) {onnx_node_name = "resnetv17_stage2__plus1"} : (tensor<*xf32>, tensor<*xf32>) -> tensor<*xf32>
    %364 = "onnx.Relu"(%363) {onnx_node_name = "resnetv17_stage2_activation1"} : (tensor<*xf32>) -> tensor<*xf32>
    %365 = "onnx.Conv"(%364, %100, %101) {dilations = [1, 1], group = 1 : si64, kernel_shape = [1, 1], onnx_node_name = "resnetv17_stage2_conv7_fwd", pads = [0, 0, 0, 0], strides = [1, 1]} : (tensor<*xf32>, tensor<128x512x1x1xf32>, tensor<128xf32>) -> tensor<*xf32>
    %366 = "onnx.BatchNormalizationInferenceMode"(%365, %102, %103, %104, %105) {epsilon = 9.99999974E-6 : f32, momentum = 0.899999976 : f32, onnx_node_name = "resnetv17_stage2_batchnorm7_fwd"} : (tensor<*xf32>, tensor<128xf32>, tensor<128xf32>, tensor<128xf32>, tensor<128xf32>) -> tensor<*xf32>
    %367 = "onnx.Relu"(%366) {onnx_node_name = "resnetv17_stage2_relu4_fwd"} : (tensor<*xf32>) -> tensor<*xf32>
    %368 = "onnx.NoValue"() {value} : () -> none
    %369 = "onnx.Conv"(%367, %106, %368) {dilations = [1, 1], group = 1 : si64, kernel_shape = [3, 3], onnx_node_name = "resnetv17_stage2_conv8_fwd", pads = [1, 1, 1, 1], strides = [1, 1]} : (tensor<*xf32>, tensor<128x128x3x3xf32>, none) -> tensor<*xf32>
    %370 = "onnx.BatchNormalizationInferenceMode"(%369, %107, %108, %109, %110) {epsilon = 9.99999974E-6 : f32, momentum = 0.899999976 : f32, onnx_node_name = "resnetv17_stage2_batchnorm8_fwd"} : (tensor<*xf32>, tensor<128xf32>, tensor<128xf32>, tensor<128xf32>, tensor<128xf32>) -> tensor<*xf32>
    %371 = "onnx.Relu"(%370) {onnx_node_name = "resnetv17_stage2_relu5_fwd"} : (tensor<*xf32>) -> tensor<*xf32>
    %372 = "onnx.Conv"(%371, %111, %112) {dilations = [1, 1], group = 1 : si64, kernel_shape = [1, 1], onnx_node_name = "resnetv17_stage2_conv9_fwd", pads = [0, 0, 0, 0], strides = [1, 1]} : (tensor<*xf32>, tensor<512x128x1x1xf32>, tensor<512xf32>) -> tensor<*xf32>
    %373 = "onnx.BatchNormalizationInferenceMode"(%372, %113, %114, %115, %116) {epsilon = 9.99999974E-6 : f32, momentum = 0.899999976 : f32, onnx_node_name = "resnetv17_stage2_batchnorm9_fwd"} : (tensor<*xf32>, tensor<512xf32>, tensor<512xf32>, tensor<512xf32>, tensor<512xf32>) -> tensor<*xf32>
    %374 = "onnx.Add"(%373, %364) {onnx_node_name = "resnetv17_stage2__plus2"} : (tensor<*xf32>, tensor<*xf32>) -> tensor<*xf32>
    %375 = "onnx.Relu"(%374) {onnx_node_name = "resnetv17_stage2_activation2"} : (tensor<*xf32>) -> tensor<*xf32>
    %376 = "onnx.Conv"(%375, %117, %118) {dilations = [1, 1], group = 1 : si64, kernel_shape = [1, 1], onnx_node_name = "resnetv17_stage2_conv10_fwd", pads = [0, 0, 0, 0], strides = [1, 1]} : (tensor<*xf32>, tensor<128x512x1x1xf32>, tensor<128xf32>) -> tensor<*xf32>
    %377 = "onnx.BatchNormalizationInferenceMode"(%376, %119, %120, %121, %122) {epsilon = 9.99999974E-6 : f32, momentum = 0.899999976 : f32, onnx_node_name = "resnetv17_stage2_batchnorm10_fwd"} : (tensor<*xf32>, tensor<128xf32>, tensor<128xf32>, tensor<128xf32>, tensor<128xf32>) -> tensor<*xf32>
    %378 = "onnx.Relu"(%377) {onnx_node_name = "resnetv17_stage2_relu6_fwd"} : (tensor<*xf32>) -> tensor<*xf32>
    %379 = "onnx.NoValue"() {value} : () -> none
    %380 = "onnx.Conv"(%378, %123, %379) {dilations = [1, 1], group = 1 : si64, kernel_shape = [3, 3], onnx_node_name = "resnetv17_stage2_conv11_fwd", pads = [1, 1, 1, 1], strides = [1, 1]} : (tensor<*xf32>, tensor<128x128x3x3xf32>, none) -> tensor<*xf32>
    %381 = "onnx.BatchNormalizationInferenceMode"(%380, %124, %125, %126, %127) {epsilon = 9.99999974E-6 : f32, momentum = 0.899999976 : f32, onnx_node_name = "resnetv17_stage2_batchnorm11_fwd"} : (tensor<*xf32>, tensor<128xf32>, tensor<128xf32>, tensor<128xf32>, tensor<128xf32>) -> tensor<*xf32>
    %382 = "onnx.Relu"(%381) {onnx_node_name = "resnetv17_stage2_relu7_fwd"} : (tensor<*xf32>) -> tensor<*xf32>
    %383 = "onnx.Conv"(%382, %128, %129) {dilations = [1, 1], group = 1 : si64, kernel_shape = [1, 1], onnx_node_name = "resnetv17_stage2_conv12_fwd", pads = [0, 0, 0, 0], strides = [1, 1]} : (tensor<*xf32>, tensor<512x128x1x1xf32>, tensor<512xf32>) -> tensor<*xf32>
    %384 = "onnx.BatchNormalizationInferenceMode"(%383, %130, %131, %132, %133) {epsilon = 9.99999974E-6 : f32, momentum = 0.899999976 : f32, onnx_node_name = "resnetv17_stage2_batchnorm12_fwd"} : (tensor<*xf32>, tensor<512xf32>, tensor<512xf32>, tensor<512xf32>, tensor<512xf32>) -> tensor<*xf32>
    %385 = "onnx.Add"(%384, %375) {onnx_node_name = "resnetv17_stage2__plus3"} : (tensor<*xf32>, tensor<*xf32>) -> tensor<*xf32>
    %386 = "onnx.Relu"(%385) {onnx_node_name = "resnetv17_stage2_activation3"} : (tensor<*xf32>) -> tensor<*xf32>
    %387 = "onnx.Conv"(%386, %134, %135) {dilations = [1, 1], group = 1 : si64, kernel_shape = [1, 1], onnx_node_name = "resnetv17_stage3_conv0_fwd", pads = [0, 0, 0, 0], strides = [2, 2]} : (tensor<*xf32>, tensor<256x512x1x1xf32>, tensor<256xf32>) -> tensor<*xf32>
    %388 = "onnx.BatchNormalizationInferenceMode"(%387, %136, %137, %138, %139) {epsilon = 9.99999974E-6 : f32, momentum = 0.899999976 : f32, onnx_node_name = "resnetv17_stage3_batchnorm0_fwd"} : (tensor<*xf32>, tensor<256xf32>, tensor<256xf32>, tensor<256xf32>, tensor<256xf32>) -> tensor<*xf32>
    %389 = "onnx.Relu"(%388) {onnx_node_name = "resnetv17_stage3_relu0_fwd"} : (tensor<*xf32>) -> tensor<*xf32>
    %390 = "onnx.NoValue"() {value} : () -> none
    %391 = "onnx.Conv"(%389, %140, %390) {dilations = [1, 1], group = 1 : si64, kernel_shape = [3, 3], onnx_node_name = "resnetv17_stage3_conv1_fwd", pads = [1, 1, 1, 1], strides = [1, 1]} : (tensor<*xf32>, tensor<256x256x3x3xf32>, none) -> tensor<*xf32>
    %392 = "onnx.BatchNormalizationInferenceMode"(%391, %141, %142, %143, %144) {epsilon = 9.99999974E-6 : f32, momentum = 0.899999976 : f32, onnx_node_name = "resnetv17_stage3_batchnorm1_fwd"} : (tensor<*xf32>, tensor<256xf32>, tensor<256xf32>, tensor<256xf32>, tensor<256xf32>) -> tensor<*xf32>
    %393 = "onnx.Relu"(%392) {onnx_node_name = "resnetv17_stage3_relu1_fwd"} : (tensor<*xf32>) -> tensor<*xf32>
    %394 = "onnx.Conv"(%393, %145, %146) {dilations = [1, 1], group = 1 : si64, kernel_shape = [1, 1], onnx_node_name = "resnetv17_stage3_conv2_fwd", pads = [0, 0, 0, 0], strides = [1, 1]} : (tensor<*xf32>, tensor<1024x256x1x1xf32>, tensor<1024xf32>) -> tensor<*xf32>
    %395 = "onnx.BatchNormalizationInferenceMode"(%394, %147, %148, %149, %150) {epsilon = 9.99999974E-6 : f32, momentum = 0.899999976 : f32, onnx_node_name = "resnetv17_stage3_batchnorm2_fwd"} : (tensor<*xf32>, tensor<1024xf32>, tensor<1024xf32>, tensor<1024xf32>, tensor<1024xf32>) -> tensor<*xf32>
    %396 = "onnx.NoValue"() {value} : () -> none
    %397 = "onnx.Conv"(%386, %151, %396) {dilations = [1, 1], group = 1 : si64, kernel_shape = [1, 1], onnx_node_name = "resnetv17_stage3_conv3_fwd", pads = [0, 0, 0, 0], strides = [2, 2]} : (tensor<*xf32>, tensor<1024x512x1x1xf32>, none) -> tensor<*xf32>
    %398 = "onnx.BatchNormalizationInferenceMode"(%397, %152, %153, %154, %155) {epsilon = 9.99999974E-6 : f32, momentum = 0.899999976 : f32, onnx_node_name = "resnetv17_stage3_batchnorm3_fwd"} : (tensor<*xf32>, tensor<1024xf32>, tensor<1024xf32>, tensor<1024xf32>, tensor<1024xf32>) -> tensor<*xf32>
    %399 = "onnx.Add"(%395, %398) {onnx_node_name = "resnetv17_stage3__plus0"} : (tensor<*xf32>, tensor<*xf32>) -> tensor<*xf32>
    %400 = "onnx.Relu"(%399) {onnx_node_name = "resnetv17_stage3_activation0"} : (tensor<*xf32>) -> tensor<*xf32>
    %401 = "onnx.Conv"(%400, %156, %157) {dilations = [1, 1], group = 1 : si64, kernel_shape = [1, 1], onnx_node_name = "resnetv17_stage3_conv4_fwd", pads = [0, 0, 0, 0], strides = [1, 1]} : (tensor<*xf32>, tensor<256x1024x1x1xf32>, tensor<256xf32>) -> tensor<*xf32>
    %402 = "onnx.BatchNormalizationInferenceMode"(%401, %158, %159, %160, %161) {epsilon = 9.99999974E-6 : f32, momentum = 0.899999976 : f32, onnx_node_name = "resnetv17_stage3_batchnorm4_fwd"} : (tensor<*xf32>, tensor<256xf32>, tensor<256xf32>, tensor<256xf32>, tensor<256xf32>) -> tensor<*xf32>
    %403 = "onnx.Relu"(%402) {onnx_node_name = "resnetv17_stage3_relu2_fwd"} : (tensor<*xf32>) -> tensor<*xf32>
    %404 = "onnx.NoValue"() {value} : () -> none
    %405 = "onnx.Conv"(%403, %162, %404) {dilations = [1, 1], group = 1 : si64, kernel_shape = [3, 3], onnx_node_name = "resnetv17_stage3_conv5_fwd", pads = [1, 1, 1, 1], strides = [1, 1]} : (tensor<*xf32>, tensor<256x256x3x3xf32>, none) -> tensor<*xf32>
    %406 = "onnx.BatchNormalizationInferenceMode"(%405, %163, %164, %165, %166) {epsilon = 9.99999974E-6 : f32, momentum = 0.899999976 : f32, onnx_node_name = "resnetv17_stage3_batchnorm5_fwd"} : (tensor<*xf32>, tensor<256xf32>, tensor<256xf32>, tensor<256xf32>, tensor<256xf32>) -> tensor<*xf32>
    %407 = "onnx.Relu"(%406) {onnx_node_name = "resnetv17_stage3_relu3_fwd"} : (tensor<*xf32>) -> tensor<*xf32>
    %408 = "onnx.Conv"(%407, %167, %168) {dilations = [1, 1], group = 1 : si64, kernel_shape = [1, 1], onnx_node_name = "resnetv17_stage3_conv6_fwd", pads = [0, 0, 0, 0], strides = [1, 1]} : (tensor<*xf32>, tensor<1024x256x1x1xf32>, tensor<1024xf32>) -> tensor<*xf32>
    %409 = "onnx.BatchNormalizationInferenceMode"(%408, %169, %170, %171, %172) {epsilon = 9.99999974E-6 : f32, momentum = 0.899999976 : f32, onnx_node_name = "resnetv17_stage3_batchnorm6_fwd"} : (tensor<*xf32>, tensor<1024xf32>, tensor<1024xf32>, tensor<1024xf32>, tensor<1024xf32>) -> tensor<*xf32>
    %410 = "onnx.Add"(%409, %400) {onnx_node_name = "resnetv17_stage3__plus1"} : (tensor<*xf32>, tensor<*xf32>) -> tensor<*xf32>
    %411 = "onnx.Relu"(%410) {onnx_node_name = "resnetv17_stage3_activation1"} : (tensor<*xf32>) -> tensor<*xf32>
    %412 = "onnx.Conv"(%411, %173, %174) {dilations = [1, 1], group = 1 : si64, kernel_shape = [1, 1], onnx_node_name = "resnetv17_stage3_conv7_fwd", pads = [0, 0, 0, 0], strides = [1, 1]} : (tensor<*xf32>, tensor<256x1024x1x1xf32>, tensor<256xf32>) -> tensor<*xf32>
    %413 = "onnx.BatchNormalizationInferenceMode"(%412, %175, %176, %177, %178) {epsilon = 9.99999974E-6 : f32, momentum = 0.899999976 : f32, onnx_node_name = "resnetv17_stage3_batchnorm7_fwd"} : (tensor<*xf32>, tensor<256xf32>, tensor<256xf32>, tensor<256xf32>, tensor<256xf32>) -> tensor<*xf32>
    %414 = "onnx.Relu"(%413) {onnx_node_name = "resnetv17_stage3_relu4_fwd"} : (tensor<*xf32>) -> tensor<*xf32>
    %415 = "onnx.NoValue"() {value} : () -> none
    %416 = "onnx.Conv"(%414, %179, %415) {dilations = [1, 1], group = 1 : si64, kernel_shape = [3, 3], onnx_node_name = "resnetv17_stage3_conv8_fwd", pads = [1, 1, 1, 1], strides = [1, 1]} : (tensor<*xf32>, tensor<256x256x3x3xf32>, none) -> tensor<*xf32>
    %417 = "onnx.BatchNormalizationInferenceMode"(%416, %180, %181, %182, %183) {epsilon = 9.99999974E-6 : f32, momentum = 0.899999976 : f32, onnx_node_name = "resnetv17_stage3_batchnorm8_fwd"} : (tensor<*xf32>, tensor<256xf32>, tensor<256xf32>, tensor<256xf32>, tensor<256xf32>) -> tensor<*xf32>
    %418 = "onnx.Relu"(%417) {onnx_node_name = "resnetv17_stage3_relu5_fwd"} : (tensor<*xf32>) -> tensor<*xf32>
    %419 = "onnx.Conv"(%418, %184, %185) {dilations = [1, 1], group = 1 : si64, kernel_shape = [1, 1], onnx_node_name = "resnetv17_stage3_conv9_fwd", pads = [0, 0, 0, 0], strides = [1, 1]} : (tensor<*xf32>, tensor<1024x256x1x1xf32>, tensor<1024xf32>) -> tensor<*xf32>
    %420 = "onnx.BatchNormalizationInferenceMode"(%419, %186, %187, %188, %189) {epsilon = 9.99999974E-6 : f32, momentum = 0.899999976 : f32, onnx_node_name = "resnetv17_stage3_batchnorm9_fwd"} : (tensor<*xf32>, tensor<1024xf32>, tensor<1024xf32>, tensor<1024xf32>, tensor<1024xf32>) -> tensor<*xf32>
    %421 = "onnx.Add"(%420, %411) {onnx_node_name = "resnetv17_stage3__plus2"} : (tensor<*xf32>, tensor<*xf32>) -> tensor<*xf32>
    %422 = "onnx.Relu"(%421) {onnx_node_name = "resnetv17_stage3_activation2"} : (tensor<*xf32>) -> tensor<*xf32>
    %423 = "onnx.Conv"(%422, %190, %191) {dilations = [1, 1], group = 1 : si64, kernel_shape = [1, 1], onnx_node_name = "resnetv17_stage3_conv10_fwd", pads = [0, 0, 0, 0], strides = [1, 1]} : (tensor<*xf32>, tensor<256x1024x1x1xf32>, tensor<256xf32>) -> tensor<*xf32>
    %424 = "onnx.BatchNormalizationInferenceMode"(%423, %192, %193, %194, %195) {epsilon = 9.99999974E-6 : f32, momentum = 0.899999976 : f32, onnx_node_name = "resnetv17_stage3_batchnorm10_fwd"} : (tensor<*xf32>, tensor<256xf32>, tensor<256xf32>, tensor<256xf32>, tensor<256xf32>) -> tensor<*xf32>
    %425 = "onnx.Relu"(%424) {onnx_node_name = "resnetv17_stage3_relu6_fwd"} : (tensor<*xf32>) -> tensor<*xf32>
    %426 = "onnx.NoValue"() {value} : () -> none
    %427 = "onnx.Conv"(%425, %196, %426) {dilations = [1, 1], group = 1 : si64, kernel_shape = [3, 3], onnx_node_name = "resnetv17_stage3_conv11_fwd", pads = [1, 1, 1, 1], strides = [1, 1]} : (tensor<*xf32>, tensor<256x256x3x3xf32>, none) -> tensor<*xf32>
    %428 = "onnx.BatchNormalizationInferenceMode"(%427, %197, %198, %199, %200) {epsilon = 9.99999974E-6 : f32, momentum = 0.899999976 : f32, onnx_node_name = "resnetv17_stage3_batchnorm11_fwd"} : (tensor<*xf32>, tensor<256xf32>, tensor<256xf32>, tensor<256xf32>, tensor<256xf32>) -> tensor<*xf32>
    %429 = "onnx.Relu"(%428) {onnx_node_name = "resnetv17_stage3_relu7_fwd"} : (tensor<*xf32>) -> tensor<*xf32>
    %430 = "onnx.Conv"(%429, %201, %202) {dilations = [1, 1], group = 1 : si64, kernel_shape = [1, 1], onnx_node_name = "resnetv17_stage3_conv12_fwd", pads = [0, 0, 0, 0], strides = [1, 1]} : (tensor<*xf32>, tensor<1024x256x1x1xf32>, tensor<1024xf32>) -> tensor<*xf32>
    %431 = "onnx.BatchNormalizationInferenceMode"(%430, %203, %204, %205, %206) {epsilon = 9.99999974E-6 : f32, momentum = 0.899999976 : f32, onnx_node_name = "resnetv17_stage3_batchnorm12_fwd"} : (tensor<*xf32>, tensor<1024xf32>, tensor<1024xf32>, tensor<1024xf32>, tensor<1024xf32>) -> tensor<*xf32>
    %432 = "onnx.Add"(%431, %422) {onnx_node_name = "resnetv17_stage3__plus3"} : (tensor<*xf32>, tensor<*xf32>) -> tensor<*xf32>
    %433 = "onnx.Relu"(%432) {onnx_node_name = "resnetv17_stage3_activation3"} : (tensor<*xf32>) -> tensor<*xf32>
    %434 = "onnx.Conv"(%433, %207, %208) {dilations = [1, 1], group = 1 : si64, kernel_shape = [1, 1], onnx_node_name = "resnetv17_stage3_conv13_fwd", pads = [0, 0, 0, 0], strides = [1, 1]} : (tensor<*xf32>, tensor<256x1024x1x1xf32>, tensor<256xf32>) -> tensor<*xf32>
    %435 = "onnx.BatchNormalizationInferenceMode"(%434, %209, %210, %211, %212) {epsilon = 9.99999974E-6 : f32, momentum = 0.899999976 : f32, onnx_node_name = "resnetv17_stage3_batchnorm13_fwd"} : (tensor<*xf32>, tensor<256xf32>, tensor<256xf32>, tensor<256xf32>, tensor<256xf32>) -> tensor<*xf32>
    %436 = "onnx.Relu"(%435) {onnx_node_name = "resnetv17_stage3_relu8_fwd"} : (tensor<*xf32>) -> tensor<*xf32>
    %437 = "onnx.NoValue"() {value} : () -> none
    %438 = "onnx.Conv"(%436, %213, %437) {dilations = [1, 1], group = 1 : si64, kernel_shape = [3, 3], onnx_node_name = "resnetv17_stage3_conv14_fwd", pads = [1, 1, 1, 1], strides = [1, 1]} : (tensor<*xf32>, tensor<256x256x3x3xf32>, none) -> tensor<*xf32>
    %439 = "onnx.BatchNormalizationInferenceMode"(%438, %214, %215, %216, %217) {epsilon = 9.99999974E-6 : f32, momentum = 0.899999976 : f32, onnx_node_name = "resnetv17_stage3_batchnorm14_fwd"} : (tensor<*xf32>, tensor<256xf32>, tensor<256xf32>, tensor<256xf32>, tensor<256xf32>) -> tensor<*xf32>
    %440 = "onnx.Relu"(%439) {onnx_node_name = "resnetv17_stage3_relu9_fwd"} : (tensor<*xf32>) -> tensor<*xf32>
    %441 = "onnx.Conv"(%440, %218, %219) {dilations = [1, 1], group = 1 : si64, kernel_shape = [1, 1], onnx_node_name = "resnetv17_stage3_conv15_fwd", pads = [0, 0, 0, 0], strides = [1, 1]} : (tensor<*xf32>, tensor<1024x256x1x1xf32>, tensor<1024xf32>) -> tensor<*xf32>
    %442 = "onnx.BatchNormalizationInferenceMode"(%441, %220, %221, %222, %223) {epsilon = 9.99999974E-6 : f32, momentum = 0.899999976 : f32, onnx_node_name = "resnetv17_stage3_batchnorm15_fwd"} : (tensor<*xf32>, tensor<1024xf32>, tensor<1024xf32>, tensor<1024xf32>, tensor<1024xf32>) -> tensor<*xf32>
    %443 = "onnx.Add"(%442, %433) {onnx_node_name = "resnetv17_stage3__plus4"} : (tensor<*xf32>, tensor<*xf32>) -> tensor<*xf32>
    %444 = "onnx.Relu"(%443) {onnx_node_name = "resnetv17_stage3_activation4"} : (tensor<*xf32>) -> tensor<*xf32>
    %445 = "onnx.Conv"(%444, %224, %225) {dilations = [1, 1], group = 1 : si64, kernel_shape = [1, 1], onnx_node_name = "resnetv17_stage3_conv16_fwd", pads = [0, 0, 0, 0], strides = [1, 1]} : (tensor<*xf32>, tensor<256x1024x1x1xf32>, tensor<256xf32>) -> tensor<*xf32>
    %446 = "onnx.BatchNormalizationInferenceMode"(%445, %226, %227, %228, %229) {epsilon = 9.99999974E-6 : f32, momentum = 0.899999976 : f32, onnx_node_name = "resnetv17_stage3_batchnorm16_fwd"} : (tensor<*xf32>, tensor<256xf32>, tensor<256xf32>, tensor<256xf32>, tensor<256xf32>) -> tensor<*xf32>
    %447 = "onnx.Relu"(%446) {onnx_node_name = "resnetv17_stage3_relu10_fwd"} : (tensor<*xf32>) -> tensor<*xf32>
    %448 = "onnx.NoValue"() {value} : () -> none
    %449 = "onnx.Conv"(%447, %230, %448) {dilations = [1, 1], group = 1 : si64, kernel_shape = [3, 3], onnx_node_name = "resnetv17_stage3_conv17_fwd", pads = [1, 1, 1, 1], strides = [1, 1]} : (tensor<*xf32>, tensor<256x256x3x3xf32>, none) -> tensor<*xf32>
    %450 = "onnx.BatchNormalizationInferenceMode"(%449, %231, %232, %233, %234) {epsilon = 9.99999974E-6 : f32, momentum = 0.899999976 : f32, onnx_node_name = "resnetv17_stage3_batchnorm17_fwd"} : (tensor<*xf32>, tensor<256xf32>, tensor<256xf32>, tensor<256xf32>, tensor<256xf32>) -> tensor<*xf32>
    %451 = "onnx.Relu"(%450) {onnx_node_name = "resnetv17_stage3_relu11_fwd"} : (tensor<*xf32>) -> tensor<*xf32>
    %452 = "onnx.Conv"(%451, %235, %236) {dilations = [1, 1], group = 1 : si64, kernel_shape = [1, 1], onnx_node_name = "resnetv17_stage3_conv18_fwd", pads = [0, 0, 0, 0], strides = [1, 1]} : (tensor<*xf32>, tensor<1024x256x1x1xf32>, tensor<1024xf32>) -> tensor<*xf32>
    %453 = "onnx.BatchNormalizationInferenceMode"(%452, %237, %238, %239, %240) {epsilon = 9.99999974E-6 : f32, momentum = 0.899999976 : f32, onnx_node_name = "resnetv17_stage3_batchnorm18_fwd"} : (tensor<*xf32>, tensor<1024xf32>, tensor<1024xf32>, tensor<1024xf32>, tensor<1024xf32>) -> tensor<*xf32>
    %454 = "onnx.Add"(%453, %444) {onnx_node_name = "resnetv17_stage3__plus5"} : (tensor<*xf32>, tensor<*xf32>) -> tensor<*xf32>
    %455 = "onnx.Relu"(%454) {onnx_node_name = "resnetv17_stage3_activation5"} : (tensor<*xf32>) -> tensor<*xf32>
    %456 = "onnx.Conv"(%455, %241, %242) {dilations = [1, 1], group = 1 : si64, kernel_shape = [1, 1], onnx_node_name = "resnetv17_stage4_conv0_fwd", pads = [0, 0, 0, 0], strides = [2, 2]} : (tensor<*xf32>, tensor<512x1024x1x1xf32>, tensor<512xf32>) -> tensor<*xf32>
    %457 = "onnx.BatchNormalizationInferenceMode"(%456, %243, %244, %245, %246) {epsilon = 9.99999974E-6 : f32, momentum = 0.899999976 : f32, onnx_node_name = "resnetv17_stage4_batchnorm0_fwd"} : (tensor<*xf32>, tensor<512xf32>, tensor<512xf32>, tensor<512xf32>, tensor<512xf32>) -> tensor<*xf32>
    %458 = "onnx.Relu"(%457) {onnx_node_name = "resnetv17_stage4_relu0_fwd"} : (tensor<*xf32>) -> tensor<*xf32>
    %459 = "onnx.NoValue"() {value} : () -> none
    %460 = "onnx.Conv"(%458, %247, %459) {dilations = [1, 1], group = 1 : si64, kernel_shape = [3, 3], onnx_node_name = "resnetv17_stage4_conv1_fwd", pads = [1, 1, 1, 1], strides = [1, 1]} : (tensor<*xf32>, tensor<512x512x3x3xf32>, none) -> tensor<*xf32>
    %461 = "onnx.BatchNormalizationInferenceMode"(%460, %248, %249, %250, %251) {epsilon = 9.99999974E-6 : f32, momentum = 0.899999976 : f32, onnx_node_name = "resnetv17_stage4_batchnorm1_fwd"} : (tensor<*xf32>, tensor<512xf32>, tensor<512xf32>, tensor<512xf32>, tensor<512xf32>) -> tensor<*xf32>
    %462 = "onnx.Relu"(%461) {onnx_node_name = "resnetv17_stage4_relu1_fwd"} : (tensor<*xf32>) -> tensor<*xf32>
    %463 = "onnx.Conv"(%462, %252, %253) {dilations = [1, 1], group = 1 : si64, kernel_shape = [1, 1], onnx_node_name = "resnetv17_stage4_conv2_fwd", pads = [0, 0, 0, 0], strides = [1, 1]} : (tensor<*xf32>, tensor<2048x512x1x1xf32>, tensor<2048xf32>) -> tensor<*xf32>
    %464 = "onnx.BatchNormalizationInferenceMode"(%463, %254, %255, %256, %257) {epsilon = 9.99999974E-6 : f32, momentum = 0.899999976 : f32, onnx_node_name = "resnetv17_stage4_batchnorm2_fwd"} : (tensor<*xf32>, tensor<2048xf32>, tensor<2048xf32>, tensor<2048xf32>, tensor<2048xf32>) -> tensor<*xf32>
    %465 = "onnx.NoValue"() {value} : () -> none
    %466 = "onnx.Conv"(%455, %258, %465) {dilations = [1, 1], group = 1 : si64, kernel_shape = [1, 1], onnx_node_name = "resnetv17_stage4_conv3_fwd", pads = [0, 0, 0, 0], strides = [2, 2]} : (tensor<*xf32>, tensor<2048x1024x1x1xf32>, none) -> tensor<*xf32>
    %467 = "onnx.BatchNormalizationInferenceMode"(%466, %259, %260, %261, %262) {epsilon = 9.99999974E-6 : f32, momentum = 0.899999976 : f32, onnx_node_name = "resnetv17_stage4_batchnorm3_fwd"} : (tensor<*xf32>, tensor<2048xf32>, tensor<2048xf32>, tensor<2048xf32>, tensor<2048xf32>) -> tensor<*xf32>
    %468 = "onnx.Add"(%464, %467) {onnx_node_name = "resnetv17_stage4__plus0"} : (tensor<*xf32>, tensor<*xf32>) -> tensor<*xf32>
    %469 = "onnx.Relu"(%468) {onnx_node_name = "resnetv17_stage4_activation0"} : (tensor<*xf32>) -> tensor<*xf32>
    %470 = "onnx.Conv"(%469, %263, %264) {dilations = [1, 1], group = 1 : si64, kernel_shape = [1, 1], onnx_node_name = "resnetv17_stage4_conv4_fwd", pads = [0, 0, 0, 0], strides = [1, 1]} : (tensor<*xf32>, tensor<512x2048x1x1xf32>, tensor<512xf32>) -> tensor<*xf32>
    %471 = "onnx.BatchNormalizationInferenceMode"(%470, %265, %266, %267, %268) {epsilon = 9.99999974E-6 : f32, momentum = 0.899999976 : f32, onnx_node_name = "resnetv17_stage4_batchnorm4_fwd"} : (tensor<*xf32>, tensor<512xf32>, tensor<512xf32>, tensor<512xf32>, tensor<512xf32>) -> tensor<*xf32>
    %472 = "onnx.Relu"(%471) {onnx_node_name = "resnetv17_stage4_relu2_fwd"} : (tensor<*xf32>) -> tensor<*xf32>
    %473 = "onnx.NoValue"() {value} : () -> none
    %474 = "onnx.Conv"(%472, %269, %473) {dilations = [1, 1], group = 1 : si64, kernel_shape = [3, 3], onnx_node_name = "resnetv17_stage4_conv5_fwd", pads = [1, 1, 1, 1], strides = [1, 1]} : (tensor<*xf32>, tensor<512x512x3x3xf32>, none) -> tensor<*xf32>
    %475 = "onnx.BatchNormalizationInferenceMode"(%474, %270, %271, %272, %273) {epsilon = 9.99999974E-6 : f32, momentum = 0.899999976 : f32, onnx_node_name = "resnetv17_stage4_batchnorm5_fwd"} : (tensor<*xf32>, tensor<512xf32>, tensor<512xf32>, tensor<512xf32>, tensor<512xf32>) -> tensor<*xf32>
    %476 = "onnx.Relu"(%475) {onnx_node_name = "resnetv17_stage4_relu3_fwd"} : (tensor<*xf32>) -> tensor<*xf32>
    %477 = "onnx.Conv"(%476, %274, %275) {dilations = [1, 1], group = 1 : si64, kernel_shape = [1, 1], onnx_node_name = "resnetv17_stage4_conv6_fwd", pads = [0, 0, 0, 0], strides = [1, 1]} : (tensor<*xf32>, tensor<2048x512x1x1xf32>, tensor<2048xf32>) -> tensor<*xf32>
    %478 = "onnx.BatchNormalizationInferenceMode"(%477, %276, %277, %278, %279) {epsilon = 9.99999974E-6 : f32, momentum = 0.899999976 : f32, onnx_node_name = "resnetv17_stage4_batchnorm6_fwd"} : (tensor<*xf32>, tensor<2048xf32>, tensor<2048xf32>, tensor<2048xf32>, tensor<2048xf32>) -> tensor<*xf32>
    %479 = "onnx.Add"(%478, %469) {onnx_node_name = "resnetv17_stage4__plus1"} : (tensor<*xf32>, tensor<*xf32>) -> tensor<*xf32>
    %480 = "onnx.Relu"(%479) {onnx_node_name = "resnetv17_stage4_activation1"} : (tensor<*xf32>) -> tensor<*xf32>
    %481 = "onnx.Conv"(%480, %280, %281) {dilations = [1, 1], group = 1 : si64, kernel_shape = [1, 1], onnx_node_name = "resnetv17_stage4_conv7_fwd", pads = [0, 0, 0, 0], strides = [1, 1]} : (tensor<*xf32>, tensor<512x2048x1x1xf32>, tensor<512xf32>) -> tensor<*xf32>
    %482 = "onnx.BatchNormalizationInferenceMode"(%481, %282, %283, %284, %285) {epsilon = 9.99999974E-6 : f32, momentum = 0.899999976 : f32, onnx_node_name = "resnetv17_stage4_batchnorm7_fwd"} : (tensor<*xf32>, tensor<512xf32>, tensor<512xf32>, tensor<512xf32>, tensor<512xf32>) -> tensor<*xf32>
    %483 = "onnx.Relu"(%482) {onnx_node_name = "resnetv17_stage4_relu4_fwd"} : (tensor<*xf32>) -> tensor<*xf32>
    %484 = "onnx.NoValue"() {value} : () -> none
    %485 = "onnx.Conv"(%483, %286, %484) {dilations = [1, 1], group = 1 : si64, kernel_shape = [3, 3], onnx_node_name = "resnetv17_stage4_conv8_fwd", pads = [1, 1, 1, 1], strides = [1, 1]} : (tensor<*xf32>, tensor<512x512x3x3xf32>, none) -> tensor<*xf32>
    %486 = "onnx.BatchNormalizationInferenceMode"(%485, %287, %288, %289, %290) {epsilon = 9.99999974E-6 : f32, momentum = 0.899999976 : f32, onnx_node_name = "resnetv17_stage4_batchnorm8_fwd"} : (tensor<*xf32>, tensor<512xf32>, tensor<512xf32>, tensor<512xf32>, tensor<512xf32>) -> tensor<*xf32>
    %487 = "onnx.Relu"(%486) {onnx_node_name = "resnetv17_stage4_relu5_fwd"} : (tensor<*xf32>) -> tensor<*xf32>
    %488 = "onnx.Conv"(%487, %291, %292) {dilations = [1, 1], group = 1 : si64, kernel_shape = [1, 1], onnx_node_name = "resnetv17_stage4_conv9_fwd", pads = [0, 0, 0, 0], strides = [1, 1]} : (tensor<*xf32>, tensor<2048x512x1x1xf32>, tensor<2048xf32>) -> tensor<*xf32>
    %489 = "onnx.BatchNormalizationInferenceMode"(%488, %293, %294, %295, %296) {epsilon = 9.99999974E-6 : f32, momentum = 0.899999976 : f32, onnx_node_name = "resnetv17_stage4_batchnorm9_fwd"} : (tensor<*xf32>, tensor<2048xf32>, tensor<2048xf32>, tensor<2048xf32>, tensor<2048xf32>) -> tensor<*xf32>
    %490 = "onnx.Add"(%489, %480) {onnx_node_name = "resnetv17_stage4__plus2"} : (tensor<*xf32>, tensor<*xf32>) -> tensor<*xf32>
    %491 = "onnx.Relu"(%490) {onnx_node_name = "resnetv17_stage4_activation2"} : (tensor<*xf32>) -> tensor<*xf32>
    %492 = "onnx.GlobalAveragePool"(%491) {onnx_node_name = "resnetv17_pool1_fwd"} : (tensor<*xf32>) -> tensor<*xf32>
    %493 = "onnx.Flatten"(%492) {onnx_node_name = "flatten_473"} : (tensor<*xf32>) -> tensor<*xf32>
    %494 = "onnx.Gemm"(%493, %297, %298) {alpha = 1.000000e+00 : f32, beta = 1.000000e+00 : f32, onnx_node_name = "resnetv17_dense0_fwd", transA = 0 : si64, transB = 1 : si64} : (tensor<*xf32>, tensor<1000x2048xf32>, tensor<1000xf32>) -> tensor<1x1000xf32>
    return %494 : tensor<1x1000xf32>
  }
  "onnx.EntryPoint"() {func = @main_graph} : () -> ()
}
